old_code/DRLmodels/models_cartpole/dqn_cartpole_model_1000.pth (torch, 89526 bytes, 24 tensors)

0.weight f4 [64, 4]
0	0xbe810411	-0.25198415
1	0xbb45f2f6	-0.003020463
2	0xbd5edb7d	-0.05440854
3	0x3c912041	0.017715575
4	0xbe224675	-0.1584719
5	0xbe964575	-0.29349867
6	0xbe824223	-0.25441083
7	0xbe440845	-0.1914378
8	0x3e967375	0.29384962
9	0xbf05b22d	-0.52225
10	0xbdf78046	-0.12085013
11	0xbebed97f	-0.3727531
12	0x3dfc3a79	0.1231584
13	0xbdad5890	-0.084641576
14	0x3f9c285d	1.2199818
15	0x3c69eece	0.014278127
16	0xbe5293f4	-0.20564252
17	0xbe19b4ad	-0.15010329
18	0xbeb5743f	-0.3544025
19	0xbe09b54a	-0.13448063
20	0xbb8c4fce	-0.0042819744
21	0x3e2b334c	0.16718787
22	0x3ff7135c	1.9302783
23	0xbdb80749	-0.089857645
24	0xbdd6322d	-0.10458789
25	0x3d37c4f8	0.04486558
26	0xbeca1f9f	-0.3947725
27	0x3e1ce7aa	0.15322748
28	0xbd955e45	-0.07293371
29	0x3d100c29	0.035167847
30	0xc0079cc9	-2.1189444
31	0xbc3a532d	-0.01137237
32	0x3d9617df	0.07328772
33	0x3c21c6f7	0.009874097
34	0x402ce92a	2.7017312
35	0x3d70cffa	0.058792092
36	0xbe5e6a43	-0.21720223
37	0xbea09ded	-0.31370488
38	0xbf9d723c	-1.2300487
39	0xbec13f52	-0.37743622
40	0xbc3047b2	-0.010759281
41	0x3e589c73	0.2115343
42	0xbfda89ea	-1.7073338
43	0xbe94cc12	-0.29061943
44	0xbe838849	-0.25689915
45	0xbe35ad0a	-0.1774179
46	0xbfc3cf59	-1.5297652
47	0xbed6f23f	-0.41981694
48	0xbdedae98	-0.11605567
49	0x3e29f06d	0.16595621
50	0x3fa77b65	1.3084532
51	0x3e57fafe	0.2109184
52	0xbae6f430	-0.0017620381
53	0xbd61d709	-0.055136714
54	0xbf2208f8	-0.63294935
55	0xbe2944d9	-0.1653017
56	0x3ee2a682	0.4426766
57	0xbec38dfa	-0.38194257
58	0xbbc12c10	-0.0058951452
59	0xbe7fa4cd	-0.2496521
60	0x3e37f6d9	0.17965259
61	0xbe908adc	-0.2823094
62	0x3dd82f22	0.10555865
63	0xbe7b1aef	-0.24521993
64	0xbe673796	-0.22579798
65	0x3e22f6bf	0.15914439
66	0x3f4f7568	0.8103852
67	0x3e4a1232	0.19733503
68	0x3dff6dc4	0.12472108
69	0xbee78e72	-0.45225865
70	0x3fb56279	1.4170676
71	0xbe151eaf	-0.14562486
72	0x3e76c88c	0.2409994
73	0xbefa1ec7	-0.48851606
74	0xbea1d65f	-0.31608865
75	0xbe1fd928	-0.15610182
76	0xbdcaafb4	-0.09896794
77	0x3f08d55e	0.5345057
78	0x3fed6acb	1.8548216
79	0x3eab9696	0.33513325
80	0xbdba2aa4	-0.09090164
81	0x3d33438e	0.043765597
82	0xbfe6a4f9	-1.8019096
83	0xbef67b62	-0.4814101
84	0x3e963b51	0.2934213
85	0xbdd61967	-0.10454064
86	0xbf529ecf	-0.8227357
87	0xbd278d16	-0.040906034
88	0xbe3997fa	-0.1812438
89	0x3ec9a8bb	0.39386544
90	0x3fcff23c	1.6245799
91	0x3ed7fcb1	0.42184976
92	0x3e4b2e8f	0.1984198
93	0x3d8eba04	0.069690734
94	0x3d6bc78a	0.057563342
95	0xbdb05628	-0.08610183
96	0xbe491b68	-0.19639361
97	0x3f089b9b	0.53362435
98	0x3f6928bb	0.91077775
99	0x3f0e863b	0.5567357
100	0x3f04df17	0.5190291
101	0xbeb254c4	-0.34830296
102	0xbfe74f2c	-1.8071036
103	0xbed3fcf7	-0.41403934
104	0x3c14e88b	0.009088646
105	0xbeb62fef	-0.35583445
106	0xbc4ba287	-0.012428886
107	0xbdbb9033	-0.09158363
108	0x3e5d7650	0.21627164
109	0x3e89c6bf	0.26909444
110	0xbee6ab25	-0.45052448
111	0x3e076c04	0.13224798
112	0x3f339a88	0.7015767
113	0x3eafee69	0.3436158
114	0x3f910e95	1.1332575
115	0x3d2de262	0.042452224
116	0x3f1ad1ca	0.6047636
117	0x3e1b75f7	0.15181719
118	0x3f840a6f	1.0315684
119	0x3e9d9d9f	0.30784318
120	0x3d6676e2	0.05626572
121	0x3985eef9	0.00025545785
122	0x4027f417	2.624273
123	0x3e4d4e3f	0.2004938
124	0xbe61ca7f	-0.22049902
125	0xbe01d8a3	-0.12680297
126	0x3f5080e2	0.8144666
127	0x3d7264f4	0.059178308
128	0x3ecdb6bf	0.40178487
129	0xbe383f82	-0.17992976
130	0x3fd3f6f5	1.655974
131	0xbb5f0a7b	-0.0034033346
132	0x3d53732c	0.05162351
133	0xbe05116c	-0.12994927
134	0xbe2f0ad2	-0.17093971
135	0xbd5ed491	-0.054401938
136	0x3ec7cbc2	0.39022642
137	0x3eb2cfa4	0.34924042
138	0x3eddf3dc	0.43350112
139	0x3e6aac44	0.22917277
140	0xbe50f1d4	-0.2040475
141	0x3e19c5a8	0.15016806
142	0x3e32bb22	0.17454198
143	0xbd391bfc	-0.045192704
144	0x3e975c93	0.29562816
145	0x3eb2e578	0.34940696
146	0x3f7ff1e3	0.99978465
147	0x3e9810f6	0.2970044
148	0x3dfdde08	0.12395865
149	0xbe0a3c55	-0.13499577
150	0xbf81af90	-1.0131702
151	0xbdacb945	-0.08433775
152	0x3e721fae	0.23644897
153	0x3e81f45b	0.2538174
154	0xbe1c168b	-0.15242974
155	0x3eb187fd	0.34674063
156	0x3c5be5ad	0.013421458
157	0x3e41d09e	0.18927237
158	0xbee6368c	-0.4496349
159	0x3e399494	0.18123084
160	0xbd337bb5	-0.043819148
161	0x3db93cd2	0.09044804
162	0x3eade245	0.33961692
163	0xbdd31c40	-0.10308123
164	0xbede5186	-0.43421572
165	0x3ea5ada6	0.32359046
166	0x3ff7cfef	1.9360331
167	0x3ec30a21	0.38093665
168	0x3ed3489d	0.41266337
169	0xbe0a9bbf	-0.13535975
170	0xbfcd6f1c	-1.6049533
171	0xbeaf38c6	-0.34223002
172	0x3e3427a8	0.17593253
173	0xbe0d43d9	-0.13795413
174	0xbf801086	-1.0005043
175	0xbeccb4c6	-0.3998167
176	0xbed99c6e	-0.4250216
177	0x3ece1c21	0.40255836
178	0x3f1ef298	0.6208892
179	0x3ea0136d	0.3126482
180	0xbeb61ef1	-0.3557048
181	0xbe522d1b	-0.20525019
182	0xbf1f2d53	-0.62178534
183	0xbdcb1478	-0.099160135
184	0xbeafb3c9	-0.34316853
185	0x3ea4511f	0.3209314
186	0x3eb6c4e5	0.35697094
187	0x3c6f98aa	0.0146238
188	0x3e900d05	0.28134933
189	0xbeaec8c1	-0.34137538
190	0x3f3f0ff9	0.7463375
191	0xbe8808ed	-0.2656931
192	0x3ee6278c	0.44952047
193	0xbe35520d	-0.17707081
194	0x3f979fe2	1.1845667
195	0x3f28fe2c	0.66012836
196	0xbd1ed18d	-0.038774062
197	0x3dfbe5b6	0.12299673
198	0x4016da76	2.3570838
199	0x3ea75d69	0.32688454
200	0x3b932737	0.0044907588
201	0x3d90dec5	0.0707374
202	0x3ee9c0b3	0.4565483
203	0x3e2f84f6	0.17140564
204	0xbed7517f	-0.42054364
205	0xbe4f42a2	-0.20240262
206	0xbedd2410	-0.43191576
207	0xbe120155	-0.1425832
208	0xbe02ae6d	-0.1276185
209	0xbdd18a18	-0.102314174
210	0x3eeb1921	0.4591761
211	0x3e837f3f	0.2568302
212	0xbc8ad417	-0.016946835
213	0xbd149467	-0.03627434
214	0x3fa6fb1f	1.3045386
215	0x3c63f041	0.013912261
216	0x3bce4223	0.006294505
217	0x3d853e0e	0.065059766
218	0xbf2c358b	-0.672692
219	0x3d8b15a6	0.067912385
220	0xbd697f97	-0.057006445
221	0x3ec83fdd	0.39111224
222	0x3f8db031	1.1069394
223	0x3db28a22	0.08717753
224	0xbe18fbca	-0.149398
225	0xbd0da5b3	-0.03458185
226	0xbf299db4	-0.6625626
227	0x3ed39d3f	0.41330907
228	0x3ecd887c	0.40143192
229	0xbeb0e5d6	-0.3455035
230	0xbe313532	-0.17305449
231	0x3eb3fa77	0.35152027
232	0xbeea1d76	-0.45725602
233	0xbe7d96f2	-0.24764612
234	0x3ed01e4d	0.40648118
235	0xbdb91fcd	-0.09039269
236	0xbde9de4e	-0.114193544
237	0x3e6fd880	0.23422432
238	0xbed22c88	-0.410496
239	0xbd3275b0	-0.043569267
240	0x3e7f2a8e	0.24918577
241	0xbe42ef11	-0.19036509
242	0xc00a1c11	-2.157963
243	0xbead0fae	-0.33801025
244	0x3ec9b51e	0.39395994
245	0xbb0e8f7c	-0.0021753004
246	0xbf5ffc26	-0.87494123
247	0x3ce00e77	0.027350647
248	0x3f18c816	0.59680307
249	0x3e607e96	0.21923289
250	0xbde6d0be	-0.11270283
251	0x3dac5dd1	0.084163316
252	0xbe943608	-0.28947473
253	0xbdb823ec	-0.089912266
254	0xbec15081	-0.37756732
255	0xbd95fa5a	-0.073231414

0.bias f4 [64]
0	0xbf2121ba	-0.6294209
1	0x3db92b60	0.09041476
2	0x3ef66bbd	0.48129073
3	0x3eed7999	0.46381834
4	0xbf10ff6d	-0.5663975
5	0xbea476c9	-0.32121876
6	0x3f203020	0.6257343
7	0xbecd1018	-0.4005134
8	0xbf0cf0e6	-0.5505508
9	0xbf13eaec	-0.5778034
10	0xbe458cfa	-0.1929206
11	0xbe9e1dc3	-0.3088208
12	0xbe30bcbc	-0.17259496
13	0x3f18c8d7	0.5968146
14	0xbe9df5f2	-0.30851704
15	0xbdaad1b4	-0.08340779
16	0x3f17ce13	0.5929882
17	0xbebe1fae	-0.37133545
18	0xbe4c22dd	-0.19935174
19	0xbe334e60	-0.17510366
20	0xbec2bb58	-0.38033557
21	0xbf5ab325	-0.854296
22	0xbda768b6	-0.08174269
23	0xbe450f3e	-0.19244096
24	0x3e2b7171	0.16742493
25	0xbefd5211	-0.49476674
26	0x3da8afe9	0.08236677
27	0x3f0b3aac	0.543864
28	0xbf2453dc	-0.6419046
29	0x3eb54765	0.35406032
30	0xbf06b34c	-0.52617335
31	0xbed0fb05	-0.40816513
32	0xbf0de79e	-0.55431545
33	0xbea5c8cb	-0.32379755
34	0xbf5d4df4	-0.8644707
35	0x3f1dbbee	0.6161488
36	0xbf3e8783	-0.74425524
37	0x3ef0594f	0.46943137
38	0xbedcbe9b	-0.4311417
39	0x3f0eba5e	0.55753124
40	0x3ea60e00	0.32432556
41	0xbf1878bd	-0.5955923
42	0xbe01f4ae	-0.12690994
43	0xbe53cff4	-0.20684797
44	0xbe2f2f2a	-0.17107835
45	0xbf0ac8ce	-0.54212654
46	0xbf0ad0f3	-0.5422508
47	0x3dcbdc4b	0.09954127
48	0xbf251e11	-0.64499
49	0xbf127456	-0.57208765
50	0x3edec35f	0.4350843
51	0xbf7c4b17	-0.9855208
52	0x3e03829d	0.12842794
53	0x3f018774	0.5059731
54	0x3e8b8226	0.27247733
55	0xbf36fb80	-0.7147751
56	0x3d913aa3	0.07091262
57	0xbf814849	-1.0100185
58	0xbf512f23	-0.8171255
59	0x3e2fd8f0	0.17172599
60	0xbf2656e5	-0.6497634
61	0x3e9d2e30	0.306993
62	0xbf6f8ac1	-0.93571097
63	0xbf178271	-0.5918341

2.weight f4 [64, 64]
0	0xbda9bb92	-0.08287729
1	0xbd7d6d08	-0.06187156
2	0xbdd5cce2	-0.10439469
3	0xbdd4692f	-0.10371625
4	0x3da688a4	0.08131531
5	0x3d5a444b	0.053287786
6	0xbdd89d38	-0.10576862
7	0xbdc312f6	-0.09525101
8	0x3df0ae16	0.11751954
9	0xbdb71c00	-0.089408875
10	0x3dbb7f41	0.09155131
11	0x3d96565a	0.07340689
12	0x3cc09ff8	0.023513779
13	0xbda75c62	-0.081719175
14	0x3d787d54	0.060666397
15	0x3d0e53ac	0.034747764
16	0xbd3adfcd	-0.04562359
17	0xbde8eb0c	-0.11372957
18	0xbdccd44e	-0.100014314
19	0x3da18299	0.07886238
20	0xbd903ee4	-0.070432454
21	0xbd92e15e	-0.07171892
22	0xbdd504ed	-0.1040133
23	0xbddafa62	-0.10692288
24	0xbdcb87ba	-0.09937997
25	0x3ca71988	0.020397916
26	0xbdb65f26	-0.08904867
27	0xbd5893f3	-0.05287547
28	0x3d5d0c04	0.053966537
29	0xbd8eefe8	-0.06979352
30	0x3c84aec8	0.016196623
31	0x3cbc92e0	0.023019254
32	0xbdd13784	-0.10215667
33	0xbd02d840	-0.031944513
34	0xbd1ca6f4	-0.038245156
35	0x3d5a91b8	0.053361624
36	0xbd863835	-0.065536894
37	0xbca01d1d	-0.019545132
38	0xbcc0c4f9	-0.023531424
39	0xbd0e14e1	-0.03468788
40	0xbe1915f0	-0.14949775
41	0xbd8f83aa	-0.07007535
42	0x3d15b798	0.03655204
43	0xbdd1758b	-0.10227498
44	0xbd07577f	-0.033042427
45	0xbcb66080	-0.022262812
46	0xbdeae1d6	-0.11468856
47	0xbdf2039e	-0.11817096
48	0x3db74ab0	0.089497924
49	0x3da89c6e	0.082329616
50	0xbe07a635	-0.13246997
51	0xbd5e0640	-0.05420518
52	0x3de059c2	0.1095462
53	0xbd2759df	-0.040857192
54	0xbd198850	-0.037483513
55	0x3d3b625f	0.04574811
56	0x3d908c66	0.07058029
57	0xbd87f074	-0.0663766
58	0xbdfabb66	-0.12242775
59	0x3d4db0fe	0.05021762
60	0x3c9d8e80	0.019232988
61	0xbd10ce7f	-0.03535318
62	0xbda193ea	-0.078895405
63	0xbc05bd50	-0.008162811
64	0xbf049c1b	-0.518007
65	0x3dc1c169	0.09460718
66	0x3d61be64	0.05511321
67	0x3db253dd	0.08707402
68	0xc0818d08	-4.0484657
69	0xbf1c48f9	-0.6104885
70	0x3de2d5ef	0.11075961
71	0xbfc65894	-1.5495782
72	0xc03154da	-2.770804
73	0xbf5792ba	-0.8420826
74	0x3e901fab	0.2814916
75	0x3ddd0ee2	0.10793854
76	0xbec06eff	-0.37584683
77	0x3e810134	0.2519623
78	0x3f320786	0.6954273
79	0xbd0d20c9	-0.034455094
80	0x3d5542fa	0.052065827
81	0x3e2e39fb	0.17014305
82	0x3ef7d8f3	0.48407707
83	0xbf0dfc24	-0.5546286
84	0x3eab5790	0.33465242
85	0xbe32b7e5	-0.17452963
86	0xbdf134dc	-0.1177766
87	0x3d3070c2	0.043076284
88	0x3e406a9c	0.18790668
89	0x3efd35c4	0.49455082
90	0x3df5fbf2	0.120109454
91	0x3dc6c151	0.09704841
92	0xbed38d5d	-0.4131879
93	0x3d35d113	0.04438884
94	0xbff85d23	-1.9403423
95	0xbe977d32	-0.29587704
96	0x3e0acd6a	0.13554922
97	0x3db148f0	0.0865649
98	0xbf79dee7	-0.97605747
99	0x3dbbaad6	0.09163444
100	0xbf4cad58	-0.79952
101	0x3e5b93da	0.2144312
102	0xbe20b2c8	-0.156932
103	0x3e6ffa7d	0.23435397
104	0x3dbe7c42	0.09301044
105	0xbf19ea56	-0.60123193
106	0x3dc812f7	0.09769242
107	0x3e45c119	0.19311942
108	0x3ea98a12	0.33113152
109	0xbd4e84e6	-0.05041971
110	0x3e758f8e	0.23980543
111	0xbdd35cce	-0.103204355
112	0xbdd19adc	-0.10234615
113	0xbdd7a014	-0.10528579
114	0x3e030aeb	0.12797134
115	0xc02bc590	-2.6839333
116	0xbdff55b3	-0.12467518
117	0xbd5114e6	-0.05104532
118	0x3e206ceb	0.15666549
119	0x3e86e5fc	0.2634734
120	0x3e3a8fd8	0.18218935
121	0xbf2ac86f	-0.6671209
122	0xbf2232f0	-0.63358974
123	0x3d1722e1	0.036898497
124	0x3d254aba	0.040354468
125	0x3ea77128	0.3270352
126	0xbfaa7d4a	-1.3319485
127	0xbfe01cc1	-1.7508775
128	0x3bfd7d01	0.007735849
129	0x3e22076c	0.15823144
130	0x3e464178	0.19360912
131	0x3d677794	0.056510523
132	0xc03ec037	-2.9804819
133	0xbf4ab045	-0.79175216
134	0x3eb77cc6	0.35837382
135	0xc0927254	-4.576456
136	0xc013e26e	-2.3106952
137	0xbf440764	-0.7657378
138	0x3ed95862	0.42450243
139	0xbf3b47c5	-0.73156387
140	0x3f3b321d	0.7312334
141	0x3e91bccc	0.28464353
142	0x3d958589	0.073008604
143	0xbd79f0bd	-0.0610206
144	0x3e31de5c	0.1736998
145	0xbd8a2fcb	-0.06747397
146	0x3dda74cc	0.106668085
147	0xbf16d2f1	-0.5891562
148	0x3e9776a5	0.29582706
149	0xbf304f01	-0.6887055
150	0x3e167d5c	0.14696258
151	0xbf0a6acb	-0.54069203
152	0x3d73fcd3	0.059567284
153	0xbea89f8d	-0.32934228
154	0x3dfe9fbb	0.1243281
155	0xbdc39fff	-0.09552001
156	0xc002d04d	-2.0439637
157	0xbb23efd7	-0.0025014782
158	0xbfd03180	-1.6265106
159	0x3d928030	0.07153356
160	0xbfb4e127	-1.4131211
161	0xbc8fdb2f	-0.01756057
162	0xc00c13f2	-2.1887174
163	0x3e6241ad	0.22095366
164	0xbf5d2518	-0.86384726
165	0x3eb17eb4	0.3466698
166	0xbc6acb60	-0.014330715
167	0x3d9f32af	0.07773339
168	0x3d924ba2	0.07143332
169	0xbec7c82f	-0.39019915
170	0x3d9d8bb1	0.0769266
171	0x3dea730d	0.114477254
172	0x3dc7447c	0.09729859
173	0xbd9be0b0	-0.07611215
174	0xbeb2ead3	-0.34944782
175	0xbe51f736	-0.2050446
176	0xbe41e3af	-0.1893451
177	0x3d61c0c2	0.05511547
178	0x3cde0a40	0.027104497
179	0xc01ffdbd	-2.499862
180	0x3d333de1	0.043760184
181	0x3d0b2647	0.03397205
182	0x3ea5ccc0	0.32382774
183	0xbe61573e	-0.22005937
184	0x3e94b8cd	0.29047242
185	0xbf56216f	-0.83644766
186	0xbf4e0832	-0.80481255
187	0x3e3a2b27	0.18180524
188	0xc014e6e8	-2.3265934
189	0x3e2156a7	0.15755711
190	0xbffd87fb	-1.9807123
191	0xbf9b4cf3	-1.2132858
192	0xbee7130e	-0.45131725
193	0x3c33d665	0.010976409
194	0x3dba549d	0.0909817
195	0x3e524352	0.20533493
196	0xc05ea2de	-3.4786906
197	0x3dc15472	0.09439935
198	0x3e0f60fe	0.14001843
199	0xc00eb5bf	-2.229843
200	0xc007c587	-2.121431
201	0xbe7abf55	-0.2448705
202	0x3ef2b5f4	0.47404444
203	0xbef2c913	-0.47419032
204	0xbe225ed1	-0.15856482
205	0x3dca50aa	0.09878667
206	0xbf808b1e	-1.0042455
207	0xbd1d436d	-0.03839438
208	0x3d84e93f	0.06489801
209	0xbee2f380	-0.443264
210	0xbbb4b734	-0.0055150036
211	0xbd235048	-0.039871484
212	0xbd9b233b	-0.07575079
213	0xbf9a2f3a	-1.2045662
214	0x3e82db00	0.2555771
215	0x3dc676cb	0.09690627
216	0x3e7dbe2e	0.24779579
217	0xbe662208	-0.2247392
218	0xbd7bbab1	-0.06145734
219	0x3eddf5ba	0.43351537
220	0xbe4aae81	-0.1979313
221	0x3e87a5dd	0.2649373
222	0xbf6d15c3	-0.9261133
223	0x3d7d9f99	0.061919782
224	0xbf839a49	-1.0281459
225	0xbe1c5d2d	-0.15269919
226	0xbf8be0c0	-1.0927963
227	0x3e7fb664	0.2497192
228	0xbfd7941f	-1.6842078
229	0x3eb36b40	0.35042763
230	0x3e256325	0.16151102
231	0x3e5c47b5	0.21511729
232	0x3e4d5b35	0.20054324
233	0xbe84f377	-0.25967
234	0x3e3a182e	0.18173286
235	0xbe3a87c4	-0.18215853
236	0xbd86abdb	-0.065757476
237	0xbaa04a02	-0.0012229087
238	0xbe135539	-0.14387979
239	0xbe97c998	-0.2964599
240	0xbe2dd366	-0.16975173
241	0x3d7075b8	0.058706015
242	0x3e741da1	0.23839428
243	0xc030cd39	-2.7625258
244	0xbd68ff0a	-0.05688385
245	0x3e3bddea	0.18346372
246	0x3e783680	0.2423954
247	0x3dc7cf6a	0.09756358
248	0xbb53e885	-0.0032334637
249	0xbed3b984	-0.41352475
250	0xbee1ebd6	-0.4412524
251	0x3e3e0eac	0.18560284
252	0xbf81ce72	-1.0141127
253	0x3e910af0	0.28328657
254	0xbfe7b116	-1.8100917
255	0xbfcfdb72	-1.6238844

2.bias f4 [64]
0	0xbd70cc2f	-0.058788475
1	0x3e835443	0.25650224
2	0x3e8fb1f8	0.28065467
3	0x3f0a6c2c	0.5407131
4	0x3ee20eeb	0.44152007
5	0xbdd95842	-0.10612537
6	0x3e08ba39	0.13352288
7	0x3e3efc5a	0.18650952
8	0xbe1a5a91	-0.15073611
9	0xbe16b57a	-0.14717665
10	0x3f01d087	0.5070881
11	0x3f10e674	0.56601644
12	0x3e645297	0.2229713
13	0x3da9ba68	0.08287507
14	0xbd03fc9b	-0.032223325
15	0x3e7531ef	0.2394483
16	0x3e928045	0.28613487
17	0xbdc289fe	-0.09498976
18	0x3ee44665	0.44584957
19	0x3ec9db3b	0.39425072
20	0xbe0a9f82	-0.1353741
21	0x3ea861d0	0.32887125
22	0x3e8b1804	0.2716676
23	0x3e8207f7	0.25396702
24	0xbde7da22	-0.113209024
25	0xbdf2f164	-0.11862448
26	0x3cf0241b	0.029314091
27	0xbdefd3a2	-0.11710288
28	0xbded8e23	-0.11599376
29	0x3eb1f465	0.3475677
30	0xbd252f8e	-0.040328555
31	0xbdcbdaa7	-0.09953814
32	0x3c3ac51b	0.011399533
33	0x3ec2e394	0.38064253
34	0x3f0a7818	0.540895
35	0x3e9ae5ed	0.30253544
36	0xbe09cc9e	-0.13456962
37	0x3ec9cf6a	0.39416057
38	0x3e73c6dd	0.23806329
39	0x3c539aa1	0.012915284
40	0x3ed28013	0.41113338
41	0x3e92f292	0.2870069
42	0x3d953039	0.07284588
43	0x3f050fcb	0.51977223
44	0x3edbd3f8	0.42935157
45	0xbe5fd2a2	-0.21857694
46	0xbd8cd18b	-0.06875905
47	0xbe617b07	-0.22019587
48	0x3eb8d9d4	0.3610369
49	0x3eb9a8b8	0.36261535
50	0xbddc26f2	-0.10749616
51	0x3deae116	0.11468713
52	0x3f03bac5	0.5145686
53	0x3e933cee	0.28757423
54	0x3eaaea24	0.3338176
55	0x3eb3f35b	0.35146603
56	0x3e97ac6a	0.2962373
57	0x3ee67afd	0.45015708
58	0xbc63e8ba	-0.013910467
59	0x3ea58d16	0.32334203
60	0x3ec9564b	0.3932365
61	0x3e95d815	0.2926642
62	0xbe941bcf	-0.28927466
63	0x3e9ca796	0.30596608

4.weight f4 [32, 64]
0	0xbb430480	-0.002975732
1	0x3eb921b7	0.36158535
2	0x3ebd1a42	0.36934096
3	0xbda9631d	-0.082708575
4	0xbe54e601	-0.20790865
5	0xbdd307bd	-0.1030421
6	0x3e2a5a32	0.1663597
7	0x3e034671	0.1281984
8	0xbd38c7bc	-0.045112357
9	0x3dfef00c	0.12448129
10	0xbd2f10fd	-0.04274081
11	0x3d41716f	0.04722732
12	0xbf6fbfe2	-0.93652165
13	0x3d2cef18	0.042220205
14	0x3d2dfec5	0.042479295
15	0x3e0e5fae	0.13903686
16	0xbf2ab1c6	-0.6667751
17	0x3d2e5767	0.042563822
18	0x3c97210c	0.018448375
19	0x3f07a6bd	0.529888
20	0x3da148cb	0.07875212
21	0xbf93dc17	-1.1551541
22	0xbbef004a	-0.0072937356
23	0xbe982d54	-0.29722083
24	0xbefd7499	-0.4950302
25	0x3d2d4340	0.042300463
26	0xbdbb8d26	-0.09157781
27	0xbccfa340	-0.025346398
28	0x3c594360	0.013260692
29	0x3ed2a064	0.41137993
30	0x3db7e1d4	0.0897862
31	0x3dd396c6	0.10331492
32	0xbccbe66f	-0.024890153
33	0x3eb4fe03	0.35350046
34	0x3eb0c104	0.3452226
35	0xbe8f04f7	-0.27933475
36	0xbb8fc020	-0.0043869168
37	0xbcb14b84	-0.021642454
38	0x3dc804f6	0.09766571
39	0xbded4368	-0.11585122
40	0x3f132b16	0.5748762
41	0x3f158911	0.5841227
42	0xbe8a27d3	-0.26983508
43	0xbeb1798c	-0.34663045
44	0xbf31147e	-0.69171894
45	0x3f6e0eca	0.92991316
46	0x397d8a89	0.00024179569
47	0xc0104cf8	-2.2546978
48	0xbed63bae	-0.41842407
49	0xbe09f4ef	-0.13472341
50	0xbd5e3157	-0.054246273
51	0xbfcda3d4	-1.6065621
52	0xbe856516	-0.26053685
53	0x3e72713e	0.23676011
54	0xbe4ca074	-0.19983083
55	0x3e9f4599	0.31107786
56	0x3dd006d6	0.10157554
57	0x3ee8dc3a	0.4548052
58	0x3ca0b59b	0.019617846
59	0x3eabe5b2	0.3357368
60	0x3f241e6f	0.6410894
61	0xc007922b	-2.1182964
62	0x3f7a32fe	0.9773406
63	0xbf9f7a19	-1.2459136
64	0xbdfbaa7a	-0.12288375
65	0x3db1b3f5	0.08676902
66	0x3d86e546	0.06586699
67	0xbf3447ea	-0.7042223
68	0xbf63d79c	-0.8900087
69	0xbded5cb8	-0.1158995
70	0xbecc38af	-0.39886996
71	0xbbb5c22a	-0.005546828
72	0xbd193408	-0.037403136
73	0x3c6a2e60	0.014293283
74	0xbed07bcd	-0.40719453
75	0xbe286cd3	-0.16447763
76	0xbd02d7bd	-0.031944025
77	0x3cda5c18	0.026655242
78	0x3d83b588	0.06431109
79	0x3dae8859	0.085221
80	0x3f068f1a	0.52562106
81	0x3c702a30	0.014658496
82	0xbf87fac7	-1.0623406
83	0x3d0e836e	0.03479331
84	0x3d176280	0.03695917
85	0xbeb6d286	-0.35707492
86	0xbddb4175	-0.10705844
87	0xbd94ac50	-0.072594285
88	0xbe63131d	-0.2217526
89	0x3c89a548	0.016802445
90	0xbdd1306d	-0.102143146
91	0xbd476e8c	-0.04868941
92	0xbdfed78a	-0.124434546
93	0xbd9c3aac	-0.07628378
94	0xbdd8c908	-0.10585219
95	0x3ddfc718	0.10926646
96	0xbd95d9b8	-0.07316917
97	0xbdb0853b	-0.08619162
98	0xbf0bdbe8	-0.54632425
99	0x3f5d6e05	0.86496
100	0xbdccf96e	-0.100085124
101	0xbe0d893d	-0.13821883
102	0xbd88cef6	-0.066801
103	0x3d8ec2e9	0.0697077
104	0x3ea9d544	0.3317052
105	0xbd4e47a8	-0.050361305
106	0xbd3a99cf	-0.04555684
107	0xbf060d7e	-0.5236434
108	0xbfcb5e3f	-1.5888137
109	0xbd021a62	-0.03176344
110	0x3db42440	0.08795977
111	0xbcb3e9ff	-0.021962164
112	0x3d8d26fd	0.06892202
113	0x3d76cf12	0.06025607
114	0x3d91fdcc	0.07128486
115	0x3f1e26fc	0.61778235
116	0xbfddcb73	-1.7327713
117	0x3dff468a	0.12464626
118	0x3e0eb39f	0.13935708
119	0xbf07e578	-0.53084517
120	0xbf74755b	-0.9549157
121	0x3ef2acd3	0.4739748
122	0xbc5a56f0	-0.013326392
123	0xbf062d28	-0.5241265
124	0xbe68d136	-0.22736058
125	0x3d06cb41	0.03290868
126	0xbf021551	-0.50813776
127	0x3cef58ed	0.029217208
128	0xbdbb04ef	-0.091318004
129	0x3d9ecd68	0.07754022
130	0x3eda4525	0.42630878
131	0x3ef26335	0.47341314
132	0x3ee3032d	0.4433836
133	0x3a080ffa	0.0005190369
134	0xbeb8b3ea	-0.36074764
135	0x3e8eb94a	0.2787574
136	0xbd808f93	-0.062773846
137	0xbd2afa3a	-0.04174254
138	0x3ee5ac85	0.44858184
139	0x3dbb9112	0.09158529
140	0xbe484ee6	-0.19561347
141	0x3c47c850	0.012193754
142	0x3dfd60eb	0.12372001
143	0xbd67dbba	-0.056606032
144	0x3f13dbf7	0.57757515
145	0x3b7351c3	0.0037127591
146	0x3dddc368	0.108282864
147	0xbe789d30	-0.24278712
148	0xbd5c8d8a	-0.05384592
149	0x3edf94a1	0.43668082
150	0xbecddc86	-0.4020731
151	0xbf45fabb	-0.7733571
152	0xbe7767eb	-0.24160735
153	0x3d565a70	0.05233234
154	0x3c3f4f23	0.0116765825
155	0x3da2e9b4	0.079547316
156	0x3b6b1e46	0.0035876199
157	0x3f40a72c	0.75255084
158	0x3f8463bc	1.0342937
159	0x3dad7ce3	0.08471086
160	0x3e1f0862	0.15530542
161	0xbe824ccc	-0.25449216
162	0x3e9015d9	0.28141668
163	0x3ea7aa7f	0.32747266
164	0x3ce8f4d6	0.02843706
165	0xbd091a53	-0.03347237
166	0x3f414d3a	0.75508463
167	0x3d880c53	0.06642976
168	0xbe18de8b	-0.14928643
169	0x3ebae676	0.36503953
170	0xbf2848e5	-0.6573623
171	0x3eadfddd	0.33982745
172	0xbe88b1e6	-0.26698226
173	0x3ecfc3bd	0.40579024
174	0xbc94c640	-0.01816094
175	0x4057adb1	3.3699763
176	0x3eb14487	0.34622595
177	0x3e286489	0.16444601
178	0xbd65c55b	-0.056096416
179	0x3f2f73ac	0.68535876
180	0x3eaf5c05	0.34249893
181	0x3f0a202c	0.5395534
182	0xbecfe97d	-0.40607825
183	0x3bcd1edb	0.006259782
184	0xbecd9973	-0.40156135
185	0xbed31276	-0.41225022
186	0x3ced6480	0.028978586
187	0x3eb944f0	0.36185408
188	0x3e436cd0	0.19084477
189	0x3ead4960	0.33845043
190	0xc00a5fdf	-2.1621015
191	0xbec9cc27	-0.39413568
192	0xbdbf1470	-0.0933007
193	0xbeeb0974	-0.4590565
194	0xbfa79d31	-1.3094846
195	0xbbe5fa70	-0.00701838
196	0xbcd9ea33	-0.026600933
197	0x3d98724e	0.07443677
198	0xbe350727	-0.1767851
199	0xbe3c7e0c	-0.18407458
200	0x39fec1c9	0.00048591036
201	0xbd28f3a7	-0.04124799
202	0xbead7029	-0.33874634
203	0x3c9fc59c	0.019503407
204	0xbf99a057	-1.2002057
205	0x3dcd722e	0.10031544
206	0x3de723ce	0.11286126
207	0xbfc0334c	-1.5015655
208	0xbf8f230e	-1.1182573
209	0xbd20ef38	-0.039290637
210	0x3e869f4a	0.26293403
211	0x3ec86018	0.39135814
212	0xbd0504d0	-0.032475293
213	0x3d73b7df	0.059501525
214	0xbf09245b	-0.535711
215	0xbfe2c6e7	-1.771695
216	0xbf4fb7cb	-0.8113982
217	0xbd9226a4	-0.07136276
218	0x3b445000	0.002995491
219	0x3d587428	0.05284515
220	0x3dded1f4	0.10879889
221	0xbfb1b41d	-1.3883091
222	0x3b17f436	0.0023186333
223	0x3c76a250	0.015053347
224	0xbda6a083	-0.08136084
225	0x3e8828ef	0.2659373
226	0x3dd636d8	0.10459679
227	0x3dbc210b	0.0918599
228	0x3b960be0	0.0045790523
229	0xbf8bee1b	-1.0932039
230	0xbf835d59	-1.0262862
231	0x3b5999c0	0.0033203214
232	0x3f09d488	0.5383992
233	0x39cb8a80	0.00038822368
234	0x3f1f0318	0.62114096
235	0xbbcbc865	-0.0062189572
236	0xbe86af1f	-0.26305482
237	0x3ee35089	0.4439738
238	0x3d49ae94	0.049238756
239	0x3ed243d1	0.41067365
240	0xbf1b1720	-0.6058216
241	0x3cdd44da	0.02701037
242	0xbd4a3d99	-0.04937515
243	0xbf188336	-0.5957521
244	0x3e8e786f	0.2782626
245	0x3d283e1d	0.04107486
246	0x3e098232	0.13428572
247	0xbd93e84e	-0.07222043
248	0xbe68821a	-0.2270588
249	0x3ebee0d3	0.37280902
250	0xbc4f0308	-0.012635
251	0x3ed33892	0.41254097
252	0xbd5a77ad	-0.053336788
253	0xbe084384	-0.13307005
254	0x3fd33e21	1.6503335
255	0xbf5875c1	-0.8455468

4.bias f4 [32]
0	0x3d8a9892	0.06767382
1	0x3e9be3fe	0.30447382
2	0x3ee18894	0.44049513
3	0x3e9680f8	0.2939527
4	0xbdbda677	-0.09260266
5	0xbd20d562	-0.039265998
6	0x3d9ee9bf	0.07759427
7	0xbdd98c6c	-0.106224865
8	0x3f19b383	0.6003954
9	0x3f1a63c0	0.60308456
10	0x3d34b7b3	0.0441205
11	0xbe14359f	-0.1447358
12	0x3ca8ab28	0.020589426
13	0x3f2442ec	0.64164615
14	0xbdedcaa3	-0.116109155
15	0xbe14ca2a	-0.14530244
16	0x3eb74354	0.35793555
17	0xbcbef545	-0.023310313
18	0x3f07d5a1	0.53060347
19	0x3f13822c	0.576205
20	0x3d9a9389	0.07547671
21	0xbdcb631f	-0.09931015
22	0x3ecfa005	0.40551773
23	0xbdbf7724	-0.09348896
24	0x3d08dd13	0.033413958
25	0xbe2c4673	-0.16823749
26	0x3ac6cbba	0.0015166916
27	0x3f12bd76	0.57320344
28	0xbda5a6fd	-0.08088491
29	0x3f273cc9	0.65327126
30	0x3d8c53d0	0.068519235
31	0xbdf1038a	-0.11768253

6.weight f4 [2, 32]
0	0xbb704a74	-0.0036665471
1	0xbfa269c5	-1.2688528
2	0xbf169600	-0.5882263
3	0xbe5dc4c9	-0.21657099
4	0x3cfb34c4	0.030664809
5	0xbdfb4c9d	-0.12270472
6	0xbf5db878	-0.866096
7	0xbdf7d89c	-0.12101862
8	0x3ebe832d	0.37209454
9	0x3ef1ed11	0.4725118
10	0xbdb80a09	-0.08986289
11	0x3dbb5b12	0.0914823
12	0xbd961263	-0.07327726
13	0x3eec13ec	0.4610895
14	0xbdb22c7a	-0.086998895
15	0xbc3c5014	-0.0114937015
16	0xc00d14ef	-2.2044027
17	0x3deb25df	0.11481833
18	0x3cb41dc8	0.021986857
19	0x3ed88de4	0.42295754
20	0xbf84cffa	-1.037597
21	0xbdf04239	-0.11731381
22	0x3e64887b	0.22317688
23	0xbdc3b839	-0.09556622
24	0xc00d3563	-2.2063835
25	0xbd7c71d1	-0.06163198
26	0x3d6d5074	0.057938054
27	0x3ecb2d4a	0.3968299
28	0x3dd4279b	0.10359117
29	0x3e7a6c17	0.24455296
30	0xbe06c454	-0.1316083
31	0xbeac73cd	-0.336821
32	0xbfd2f568	-1.6481142
33	0xbf78f03d	-0.97241575
34	0x3f2aa269	0.6665407
35	0x3f9b1a5e	1.2117422
36	0xbd898237	-0.0671429
37	0x3d3d7660	0.04625547
38	0xbf8d6107	-1.1045235
39	0xbd76b2a7	-0.06022897
40	0x3eae2083	0.3400918
41	0x3c35d16d	0.011097294
42	0xbdaaeffc	-0.08346555
43	0x3caa93aa	0.020822365
44	0x3ba4df07	0.0050314697
45	0x3e1f1770	0.15536284
46	0x3d4f88bf	0.05066752
47	0x3d0ace18	0.033887953
48	0xc01ea3c4	-2.4787455
49	0xbe176f9c	-0.1478867
50	0x3eb3eeec	0.3514322
51	0x3de5a49c	0.11213037
52	0xbe27b8d6	-0.16379103
53	0xbca362c4	-0.019944556
54	0x3ea0163a	0.31266958
55	0x3dd5afda	0.10433932
56	0xbfffd66e	-1.9987314
57	0x3dcc5b87	0.09978395
58	0xbc84db02	-0.016217712
59	0x3ea2362f	0.31681964
60	0x3e1641fb	0.14673607
61	0x3eb6d359	0.3570812
62	0x3cdd6f76	0.027030688
63	0xbd6514e1	-0.055928115

6.bias f4 [2]
0	0x3f042c8d	0.5163048
1	0x3ee01ca7	0.4377186

exp_avg f4 [64, 4]
0	0x80000004	-6e-45
1	0x80000004	-6e-45
2	0x80000004	-6e-45
3	0x80000004	-6e-45
4	0x3b4b4352	0.0031015468
5	0xba7ba4c6	-0.00095994433
6	0xb8a4e3dc	-7.8625715e-05
7	0x39889b7d	0.0002605579
8	0xbaa50274	-0.0012589232
9	0xbc1de860	-0.009637922
10	0x395bfbdf	0.00020979297
11	0x3adb4d35	0.0016731384
12	0x3b772144	0.0037709037
13	0xbb8ae0a4	-0.004238205
14	0x397296d6	0.00023135109
15	0xba198b5e	-0.0005857254
16	0x80000004	-6e-45
17	0x80000004	-6e-45
18	0x00000004	6e-45
19	0x80000004	-6e-45
20	0x39e1333f	0.00042953526
21	0x3aa09f93	0.0012254588
22	0x391c43c2	0.00014902561
23	0xb9bbdfb3	-0.00035834088
24	0x3946f3b0	0.00018973532
25	0xbc068988	-0.008211501
26	0x39b34839	0.0003419535
27	0xb9c4acd4	-0.000375128
28	0x398cbaf2	0.00026842166
29	0x39c404ee	0.00037387706
30	0xb87d79cc	-6.0433333e-05
31	0xb8e38f78	-0.000108509266
32	0x3969ee4c	0.00022309384
33	0x3b0660c1	0.0020504447
34	0x3a1098c5	0.00055159285
35	0x39e287a6	0.00043207145
36	0x39b69962	0.00034828024
37	0x39d3735e	0.0004033101
38	0x3877008a	5.888989e-05
39	0xb9e515dc	-0.0004369457
40	0xbbcffff2	-0.0063476497
41	0xba25e669	-0.0006328584
42	0x3918576e	0.0001452842
43	0x39df6dc0	0.00042615645
44	0x3925c408	0.00015808654
45	0x39119045	0.00013882022
46	0xb7c11f9e	-2.3022116e-05
47	0xb8ae1be1	-8.3021594e-05
48	0xb9f63290	-0.00046958448
49	0x3aa0166a	0.0012213711
50	0x38a3a60e	7.803376e-05
51	0xb9a84bc8	-0.00032099918
52	0xbad79ab4	-0.0016449303
53	0xbc192a48	-0.00934846
54	0x3a075524	0.0005162528
55	0xba55420a	-0.0008135146
56	0x3c99846f	0.018739907
57	0x3bbeba72	0.005820566
58	0xb98b6ea8	-0.0002659459
59	0xbb581584	-0.0032971809
60	0xbab63b56	-0.0013903182
61	0xba9e83f7	-0.0012093772
62	0x386b702c	5.6132834e-05
63	0x395b3a9f	0.00020907306
64	0x3b4b8a8f	0.003105793
65	0xbb818e86	-0.0039537577
66	0x3918ec76	0.00014583938
67	0xb93c418c	-0.00017953495
68	0xbb427653	-0.0029672578
69	0x3b4bc342	0.0031091725
70	0x39213be4	0.00015376467
71	0xbaafafed	-0.001340387
72	0x3ade6df4	0.0016970024
73	0xbaba03a8	-0.0014191763
74	0xb835b2a7	-4.3320146e-05
75	0x378baf20	1.665164e-05
76	0xb9cbd376	-0.00038876728
77	0xbad684e9	-0.0016366515
78	0x39795160	0.00023776805
79	0xb9847979	-0.00025267506
80	0x3913c378	0.0001409183
81	0xba876b23	-0.0010331612
82	0xb821f4df	-3.8613445e-05
83	0x3a350212	0.00069049106
84	0x00000004	6e-45
85	0x00000004	6e-45
86	0x80000004	-6e-45
87	0x00000004	6e-45
88	0x3aaf558b	0.0013376934
89	0xb9f68d96	-0.00047026266
90	0x3934e13e	0.00017250047
91	0xba4344c8	-0.0007448909
92	0xb9bf4142	-0.0003647898
93	0x3a321020	0.0006792564
94	0x37301446	1.0495138e-05
95	0x398de5d7	0.0002706486
96	0x3b7a0250	0.003814835
97	0x3af71f06	0.001885385
98	0xb71854ee	-9.07968e-06
99	0xba2ee896	-0.0006672231
100	0x3b2b2970	0.0026117228
101	0x39f388d8	0.00046450528
102	0x386b48e0	5.6096236e-05
103	0xbaaf9323	-0.0013395291
104	0x3b1de47f	0.0024092493
105	0xbaccd6e9	-0.0015628013
106	0xb8c492c3	-9.373345e-05
107	0x3a0b74ca	0.0005319832
108	0xbb8f3fd1	-0.004371621
109	0xbbd83a76	-0.006598766
110	0x39cbdfbd	0.00038885875
111	0xb9ac2c68	-0.00032839482
112	0xbb2d5b58	-0.002645215
113	0xbb0db418	-0.0021622237
114	0x3952da40	0.00020108465
115	0xbadb851a	-0.0016748041
116	0x3a07c02c	0.0005178477
117	0xbb1e95e1	-0.0024198222
118	0x38d021bc	9.9244964e-05
119	0xba0f673a	-0.0005470399
120	0xb6e4ffb4	-6.8246973e-06
121	0xb902891a	-0.0001244884
122	0xb83fcd94	-4.5729408e-05
123	0x39256000	0.00015771389
124	0xbae50c29	-0.0017474937
125	0xba796fda	-0.00095152634
126	0x38af0ccb	8.347033e-05
127	0x39f6f02e	0.00047099724
128	0xba759b60	-0.0009369161
129	0x3b6eec30	0.0036456697
130	0x39928165	0.00027943696
131	0xbb2cbe22	-0.0026358445
132	0x80000004	-6e-45
133	0x80000004	-6e-45
134	0x80000004	-6e-45
135	0x00000004	6e-45
136	0x3d0de06d	0.034637857
137	0x3a8884c2	0.0010415541
138	0xbad3bf55	-0.0016155044
139	0x3bee36d6	0.0072697205
140	0x39eab230	0.00044764718
141	0xbc05f9cd	-0.008177233
142	0x39d40249	0.00040437494
143	0xb9f2f270	-0.00046338467
144	0x3d3366d6	0.043799244
145	0x3cef6866	0.029224586
146	0xbb619e16	-0.0034426502
147	0x3c7a4ffc	0.015277859
148	0xba324932	-0.0006801068
149	0xbbf1147a	-0.0073571773
150	0x39e0ff74	0.00042914937
151	0xbaa1e2dc	-0.0012350935
152	0x3a3b4832	0.0007144242
153	0x39bd6094	0.00036120845
154	0x38377b44	4.37454e-05
155	0xb9a819d2	-0.00032062695
156	0x3a9ff24b	0.0012202946
157	0xbbd1def4	-0.006404752
158	0x39db72ec	0.00041856559
159	0xba531242	-0.0008051732
160	0xba0ec87c	-0.00054467446
161	0xbb4d0cd2	-0.003128816
162	0x398e570a	0.000271492
163	0xba2eed3e	-0.0006672925
164	0xbc019155	-0.007908185
165	0xbb1ed79c	-0.00242374
166	0xb811419e	-3.4631805e-05
167	0x3a095f97	0.0005240379
168	0xbb7bee08	-0.0038441438
169	0xbb630666	-0.0034641265
170	0x3962b38a	0.00021619923
171	0xba06dce9	-0.00051446125
172	0xb9f44e80	-0.00046597794
173	0x3a5150bf	0.00079847494
174	0x36d654e0	6.3875777e-06
175	0xb9b46b0c	-0.00034412032
176	0x3bac3c22	0.005256192
177	0x3baae848	0.0052156784
178	0x39895e3a	0.0002620088
179	0xbae011d6	-0.0017095159
180	0xb8ccab13	-9.759343e-05
181	0x3727dd7d	1.0005545e-05
182	0xb6c2b3c0	-5.802576e-06
183	0xb8200b45	-3.815747e-05
184	0xba2ab30a	-0.0006511664
185	0x3a0004db	0.0004883536
186	0x374af774	1.2097753e-05
187	0xb989545e	-0.00026193535
188	0x3b08c499	0.0020869134
189	0x3b25c96c	0.0025297059
190	0xb7b353c0	-2.1377462e-05
191	0xba799b1a	-0.0009521708
192	0xbb4a38d6	-0.003085663
193	0x3a4013a3	0.0007327145
194	0x389a583c	7.359727e-05
195	0x39501984	0.00019845931
196	0x35817d16	9.647654e-07
197	0xb8a28625	-7.749748e-05
198	0xb7c3f918	-2.3361805e-05
199	0x385e5b26	5.3013813e-05
200	0x3b0c1ce9	0.0021379536
201	0xbb8812d8	-0.004152637
202	0x399a47e6	0.00029426737
203	0xba462d68	-0.00075598666
204	0xbba1b762	-0.004935191
205	0xbbad558e	-0.00528974
206	0x3a15aa6c	0.0005709294
207	0x3c012a05	0.007883553
208	0x3a96f63f	0.0011517479
209	0x388984f6	6.557435e-05
210	0x376a3b74	1.3961329e-05
211	0xb73a79c0	-1.1114811e-05
212	0x3b9c9d78	0.004779514
213	0xbbace464	-0.0052762497
214	0x3986b211	0.00025691141
215	0xba040a94	-0.00050369767
216	0xba98416c	-0.0011616177
217	0xbaf2b107	-0.0018515893
218	0x3977f65a	0.00023647529
219	0xb96d4900	-0.00022629276
220	0x3a0d3a4a	0.0005387409
221	0x3ac01534	0.0014654757
222	0x3867f02d	5.5298373e-05
223	0xba1f0df6	-0.0006067449
224	0xb85d9c7e	-5.283625e-05
225	0x3964d0e7	0.00021821597
226	0xb7e7dd12	-2.764029e-05
227	0xb959be09	-0.00020765526
228	0x3a402a5d	0.00073305314
229	0x3a04162a	0.0005038703
230	0xb816ca7e	-3.5951372e-05
231	0x38a469a8	7.8398094e-05
232	0x397409ba	0.00023273277
233	0x3989492e	0.000261852
234	0xb7dbf9d2	-2.6223166e-05
235	0xb991b5e7	-0.00027792083
236	0xbbc85f94	-0.0061149094
237	0xbab22282	-0.0013590606
238	0x39b12e80	0.00033794716
239	0xb9d7a080	-0.00041127577
240	0x3cfbad5c	0.030722313
241	0x3bfb0b84	0.007661285
242	0xbaa672af	-0.0012698973
243	0xb9fab7ec	-0.00047820748
244	0xbb35b0e5	-0.0027723846
245	0xbb9df317	-0.0048202383
246	0x39881684	0.00025956717
247	0xba2ecf62	-0.00066684757
248	0x3d35d01c	0.04438792
249	0x3d01f2ca	0.031725682
250	0xbae2179a	-0.0017249465
251	0x3b02c692	0.0019954783
252	0xbc15f25f	-0.009152024
253	0xbb22d4a5	-0.0024845984
254	0x39c83ebb	0.0003819371
255	0x3ad90b77	0.0016559203

exp_avg_sq f4 [64, 4]
0	0x3003dd2b	4.797182e-10
1	0x2efd73de	1.152569e-10
2	0x2bc6dc01	1.412981e-12
3	0x2d5aa063	1.2427478e-11
4	0x39bd1e9a	0.0003607169
5	0x38d472c4	0.000101303245
6	0x353b2a03	6.9724064e-07
7	0x37c7d4f4	2.3821813e-05
8	0x3c1356cb	0.008992861
9	0x3a89d325	0.0010515196
10	0x37962571	1.7898828e-05
11	0x38e1615d	0.000107469714
12	0x3c8012cd	0.015633965
13	0x3b5234d3	0.0032074943
14	0x3804f597	3.1699976e-05
15	0x397f23f0	0.00024332083
16	0x3c34ea21	0.011042149
17	0x3b07c76f	0.0020718237
18	0x36e0c7fe	6.6990024e-06
19	0x399106e8	0.000276617
20	0x3880f66a	6.149414e-05
21	0x39b955f5	0.00035349993
22	0x375801ee	1.2875053e-05
23	0x38bf9359	9.135035e-05
24	0x3ce0c58b	0.027437946
25	0x3bbe8475	0.00581413
26	0x387cb03c	6.0245613e-05
27	0x39f5ad5a	0.00046859198
28	0x3a42f650	0.0007437216
29	0x3aac249c	0.0013133469
30	0x386a83ed	5.5912813e-05
31	0x38b686b3	8.703526e-05
32	0x3b389531	0.0028165097
33	0x3c9b2fd1	0.0189437
34	0x3a4e7709	0.0007876014
35	0x3ba56788	0.0050477423
36	0x3c105f93	0.008811849
37	0x39ec568e	0.00045077916
38	0x35daaa4f	1.6291832e-06
39	0x39555fef	0.00020349001
40	0x3a5dfcae	0.0008468133
41	0x392e182d	0.0001660294
42	0x359a2ae6	1.1486379e-06
43	0x375ff645	1.3349175e-05
44	0x3aeb9709	0.0017974089
45	0x38e367f2	0.00010843565
46	0x3577c86a	9.230631e-07
47	0x385bb787	5.2384592e-05
48	0x39176dcf	0.00014441389
49	0x394663ac	0.00018919882
50	0x369a8a6e	4.605673e-06
51	0x38419c92	4.6160603e-05
52	0x3cecab8a	0.02889039
53	0x3bd1b408	0.006399635
54	0x388c0131	6.675942e-05
55	0x3a036960	0.00050129555
56	0x3da7a0e5	0.08184985
57	0x3c1e3c27	0.009657896
58	0x38af9ffb	8.374449e-05
59	0x3a0805d1	0.0005188855
60	0x3953823d	0.00020171046
61	0x37c2a42c	2.320305e-05
62	0x344ed025	1.9260968e-07
63	0x35d67468	1.5978121e-06
64	0x3c46c7c1	0.012132586
65	0x3b2e1987	0.0026565508
66	0x37f2533c	2.8887407e-05
67	0x39627aa5	0.00021598728
68	0x38f4ad64	0.00011667123
69	0x39693d80	0.00022243522
70	0x34ca028d	3.7627288e-07
71	0x370ae944	8.279752e-06
72	0x3a458c1a	0.00075358304
73	0x3790eb8c	1.7275823e-05
74	0x34d80da5	4.0243063e-07
75	0x36359b60	2.7061542e-06
76	0x3ba4d12e	0.005029819
77	0x3ac60766	0.0015108406
78	0x37bc5bd3	2.2454105e-05
79	0x393bcb6b	0.00017909489
80	0x38c3e5a3	9.341098e-05
81	0x38d0b704	9.952302e-05
82	0x33cbb494	9.485771e-08
83	0x380aa27d	3.3053093e-05
84	0x36571352	3.2048742e-06
85	0x3534db1e	6.7374083e-07
86	0x31c31111	5.677187e-09
87	0x32646a26	1.3295482e-08
88	0x39dedde8	0.00042508473
89	0x3a04e467	0.0005069435
90	0x378c004b	1.6689437e-05
91	0x3849eaf4	4.814095e-05
92	0x3924c31d	0.00015712944
93	0x3850bfe3	4.9769773e-05
94	0x34d092fa	3.884996e-07
95	0x36cfb3d6	6.1900164e-06
96	0x3b939702	0.0045040855
97	0x3a8c39c8	0.0010698372
98	0x36e391f1	6.782117e-06
99	0x3846ea06	4.742483e-05
100	0x3c285939	0.010275179
101	0x3a8eab34	0.0010884763
102	0x37255ec8	9.856834e-06
103	0x389a1c77	7.348594e-05
104	0x3a6ee750	0.0009113448
105	0x38ac2bc1	8.209749e-05
106	0x3526e696	6.2175366e-07
107	0x378fd122	1.7144313e-05
108	0x3c949fcb	0.018142601
109	0x3b6b7302	0.0035926704
110	0x37f73b47	2.9472298e-05
111	0x3970d4aa	0.00022967407
112	0x3ade0a01	0.0016940237
113	0x3a8fe54a	0.0010978368
114	0x3833d9fb	4.2879936e-05
115	0x39af1bad	0.0003339922
116	0x3bd34e18	0.0064485185
117	0x3aa3712f	0.0012469644
118	0x3710c596	8.629073e-06
119	0x38b06c5f	8.41252e-05
120	0x3ab9516b	0.0014138644
121	0x3c13e0d2	0.009025769
122	0x39c90987	0.00038344806
123	0x3b1f302e	0.0024290192
124	0x396f8da0	0.00022845576
125	0x37b81b3d	2.1947193e-05
126	0x346cbe73	2.2048498e-07
127	0x370a589b	8.246071e-06
128	0x3d737f7a	0.059447743
129	0x3bb8c9a0	0.00563927
130	0x385e4ee2	5.300239e-05
131	0x39bf993c	0.00036544527
132	0x0114b279	2.7311355e-38
133	0x02ee06eb	3.4974928e-37
134	0x000d5bd1	1.226799e-39
135	0x01bbc0be	6.896952e-38
136	0x3e5bacf3	0.21452694
137	0x3d1a7bbb	0.037715655
138	0x395287c8	0.00020077743
139	0x3b2c54f9	0.0026295765
140	0x3cfdbe1a	0.030974437
141	0x3bdb5985	0.006694021
142	0x389a0360	7.343921e-05
143	0x3a0e5bfc	0.0005430577
144	0x3f26080a	0.64856017
145	0x3e351151	0.17682387
146	0x3a462d7c	0.0007559878
147	0x3c186841	0.0093022
148	0x3c6d0755	0.01446708
149	0x3b6aa018	0.003580099
150	0x381ab11d	3.688141e-05
151	0x399d8731	0.000300461
152	0x398c352b	0.00026742494
153	0x3880274b	6.1108345e-05
154	0x354d6d5f	7.6527607e-07
155	0x36ac94e5	5.143333e-06
156	0x3cbd31cd	0.023095036
157	0x3b9e7596	0.0048357947
158	0x384b9d1e	4.85453e-05
159	0x39c52966	0.00037605612
160	0x3be5aa4e	0.0070088273
161	0x3abd86f5	0.0014459776
162	0x37899672	1.640173e-05
163	0x38de7a71	0.000106085914
164	0x3bcba094	0.0062142108
165	0x3a507f5d	0.0007953549
166	0x37ddf006	2.6457023e-05
167	0x3994f38f	0.00028410225
168	0x3b083591	0.0020783881
169	0x39e35725	0.00043361742
170	0x363d23d7	2.8184056e-06
171	0x37bb18c7	2.2303675e-05
172	0x3b5f3166	0.0034056543
173	0x39942da5	0.00028262768
174	0x365521d1	3.1759157e-06
175	0x37bcd54d	2.2510672e-05
176	0x3a118b5e	0.00055520784
177	0x3a7f46d9	0.0009738035
178	0x37b76286	2.1861179e-05
179	0x38c0c6dd	9.1923146e-05
180	0x378ab8c0	1.6536913e-05
181	0x3692f9cc	4.3802193e-06
182	0x32d131aa	2.4353387e-08
183	0x35d373ee	1.5754465e-06
184	0x3a003659	0.0004890911
185	0x3869b083	5.571592e-05
186	0x347fb414	2.3814238e-07
187	0x37bab282	2.2256052e-05
188	0x3ba948dc	0.005166156
189	0x3a1763f9	0.000577509
190	0x36d8a596	6.4565784e-06
191	0x38305620	4.204188e-05
192	0x3ad849ef	0.0016501526
193	0x396bce09	0.000224881
194	0x36455634	2.9405464e-06
195	0x37a110c0	1.9200495e-05
196	0x3901aea0	0.00012367452
197	0x3a5f225f	0.00085118966
198	0x380a0bb2	3.2912656e-05
199	0x39416943	0.00018445127
200	0x3c762e0d	0.015025628
201	0x3b481534	0.0030530216
202	0x37ed677c	2.830079e-05
203	0x3971dd73	0.00023066047
204	0x3e23003c	0.15918058
205	0x3bfa55c6	0.0076396195
206	0x388536af	6.35212e-05
207	0x3b91f13f	0.0044538076
208	0x384ebfb7	4.9292776e-05
209	0x378b7582	1.662481e-05
210	0x356f6235	8.917735e-07
211	0x3693081b	4.381885e-06
212	0x3cb99a87	0.022656692
213	0x3b9d2195	0.004795263
214	0x3871b419	5.7626607e-05
215	0x39d7ae7e	0.00041138002
216	0x3b9c0bf4	0.004762167
217	0x3a56fbb1	0.0008200957
218	0x36ff381a	7.6061233e-06
219	0x387de57a	6.0533617e-05
220	0x36897ec3	4.097675e-06
221	0x3828ee51	4.027627e-05
222	0x33ec6074	1.1007151e-07
223	0x36f1e9fd	7.2095995e-06
224	0x3aac236b	0.0013133114
225	0x39365649	0.00017389016
226	0x36ad5991	5.1662287e-06
227	0x38906f9c	6.887244e-05
228	0x38f591e0	0.00011709682
229	0x3642e954	2.9044068e-06
230	0x340b5d27	1.2979272e-07
231	0x36350d54	2.697886e-06
232	0x3b8e146d	0.004335931
233	0x397184c9	0.00023033017
234	0x362ff86e	2.6221637e-06
235	0x38f444ed	0.00011647665
236	0x3b6a9d8d	0.0035799474
237	0x3a5a7e11	0.00083348254
238	0x36c168d9	5.764054e-06
239	0x3848097c	4.769255e-05
240	0x3cb8b347	0.022546424
241	0x3a571a71	0.0008205539
242	0x37c477fb	2.3420891e-05
243	0x390ed80e	0.00013622662
244	0x3bb48e66	0.0055101393
245	0x3ad61e16	0.0016335871
246	0x376fa931	1.4284903e-05
247	0x390cb054	0.00013417128
248	0x3f12465d	0.57138616
249	0x3d994148	0.074831545
250	0x3a1b4d03	0.00059242564
251	0x3b856ca8	0.0040717907
252	0x3d62a2dc	0.055331096
253	0x3b2e0ded	0.0026558593
254	0x37e48420	2.7241244e-05
255	0x3acd3723	0.0015656691

exp_avg f4 [64]
0	0x00000004	6e-45
1	0xb8817d00	-6.1744824e-05
2	0xbb4a10a1	-0.0030832666
3	0x397c6a90	0.0002407229
4	0x00000004	6e-45
5	0x3a3f9850	0.0007308768
6	0xbb8e40bc	-0.004341213
7	0x399fb47b	0.00030461312
8	0x3b39b458	0.0028336253
9	0xb92ad4eb	-0.00016291782
10	0xbb1a574c	-0.0023550568
11	0xb8df1246	-0.00010636872
12	0x3a33eb04	0.0006863328
13	0xbb99cee4	-0.0046938527
14	0x3c073578	0.008252494
15	0xba148895	-0.0005666104
16	0xbaa125b5	-0.0012294563
17	0xbb1bf6b0	-0.002379816
18	0x3aa3334a	0.0012451198
19	0xb860a612	-5.3560427e-05
20	0xba189fe0	-0.0005822163
21	0x00000004	6e-45
22	0xbb23ed56	-0.002501329
23	0xb9425a37	-0.0001853489
24	0x3a8df78f	0.0010831224
25	0x3a781a96	0.0009464411
26	0x3a44d66a	0.0007508757
27	0xbacb627d	-0.0015517023
28	0xbb2e4e74	-0.0026597055
29	0x3a0166c0	0.00049362704
30	0xb96ee834	-0.00022783951
31	0x3a8b1e06	0.0010613806
32	0xba8cddfe	-0.0010747311
33	0x00000004	6e-45
34	0x3c692aac	0.014231365
35	0xbb8e80a4	-0.0043488313
36	0x3ce6229e	0.028092679
37	0xbb66207a	-0.0035114572
38	0x39f17400	0.0004605353
39	0xbac9f8a2	-0.0015409181
40	0xbb03c3d3	-0.0020105734
41	0x3b4650c0	0.0030260533
42	0xbb047e97	-0.0020217055
43	0xba07ab78	-0.0005175392
44	0x3a31fe7c	0.0006789935
45	0x380847fa	3.249196e-05
46	0x3a2fb677	0.00067029096
47	0x3a0aa3e1	0.0005288702
48	0xbaa757b3	-0.0012767225
49	0xb8dca3c6	-0.00010520923
50	0xb8cf6900	-9.890087e-05
51	0x3b077ab3	0.00206725
52	0xb9210a88	-0.0001535808
53	0xba108a10	-0.0005513737
54	0x3830bfe0	4.2140367e-05
55	0x3a33e760	0.00068627857
56	0xba4ceade	-0.00078169804
57	0x394b87be	0.00019410157
58	0xb900d168	-0.00012285041
59	0xbb8e5f32	-0.0043448443
60	0x3c5601bd	0.013061938
61	0xbaa81b47	-0.0012825512
62	0x3cba0756	0.022708576
63	0x3b8d9268	0.0043204315

exp_avg_sq f4 [64]
0	0x2ebd6ed4	8.614412e-11
1	0x397fadd2	0.00024383448
2	0x3b733ca9	0.0037115014
3	0x3bcb8e7e	0.0062120548
4	0x3b138be4	0.0022513801
5	0x39b8d991	0.00035257314
6	0x3c476dc3	0.012172165
7	0x3aaf7271	0.0013385547
8	0x3ca60ff0	0.020271271
9	0x3ad20314	0.0016022646
10	0x3929ea10	0.00016204291
11	0x39aa1f94	0.00032448454
12	0x3950d496	0.0001991562
13	0x3c5edfbb	0.013603146
14	0x3c758e44	0.014987532
15	0x3883be39	6.2819985e-05
16	0x3baf86d1	0.0053566475
17	0x39438a9f	0.0001864829
18	0x392fac45	0.00016753476
19	0x3ab9a60a	0.0014163863
20	0x38069957	3.20909e-05
21	0x352044e0	5.970487e-07
22	0x3a8444b9	0.0010091282
23	0x38746356	5.8266647e-05
24	0x3a667f42	0.00087927666
25	0x3af02476	0.0018321413
26	0x39a3bcad	0.00031230357
27	0x3bc7d925	0.0060988837
28	0x3ab40e17	0.0013737109
29	0x3ad39af9	0.0016144208
30	0x3c22a3e9	0.009926775
31	0x38581ab1	5.152327e-05
32	0x3c3533c0	0.011059701
33	0x02263cac	1.2213166e-37
34	0x3d3ea36d	0.046542574
35	0x3c6ba297	0.014382026
36	0x3e1b3d7c	0.15160173
37	0x3bec758f	0.0072161625
38	0x3883c524	6.283287e-05
39	0x3c1b64b4	0.009484459
40	0x3b486040	0.0030574948
41	0x3af65660	0.0018794052
42	0x3a0db5a8	0.0005405792
43	0x3a2f9f97	0.0006699501
44	0x3aa35913	0.0012462459
45	0x368ab6e4	4.1340118e-06
46	0x38bee5bd	9.102698e-05
47	0x3aa15326	0.0012308105
48	0x39b399e2	0.00034256192
49	0x3a63c04b	0.00086880167
50	0x3bbcf285	0.0057662153
51	0x3ced484d	0.02896514
52	0x38bbe637	8.959736e-05
53	0x3c2fcb72	0.0107296575
54	0x3ab51dad	0.0013818048
55	0x370f8c08	8.556068e-06
56	0x39b84be2	0.00035151752
57	0x37b62c53	2.171673e-05
58	0x3a4d6a00	0.00078359246
59	0x3a676fe9	0.00088286266
60	0x3b83cd15	0.0040222504
61	0x3b03e9cd	0.002012837
62	0x3df499d5	0.11943404
63	0x3c25a644	0.010110442

exp_avg f4 [64, 64]
0	0x00000000	0.0
1	0x00000000	0.0
2	0x00000000	0.0
3	0x00000004	6e-45
4	0x00000000	0.0
5	0x00000004	6e-45
6	0x00000004	6e-45
7	0x00000000	0.0
8	0x00000000	0.0
9	0x00000000	0.0
10	0x00000004	6e-45
11	0x00000000	0.0
12	0x00000000	0.0
13	0x00000004	6e-45
14	0x00000000	0.0
15	0x00000000	0.0
16	0x00000004	6e-45
17	0x00000000	0.0
18	0x00000000	0.0
19	0x00000004	6e-45
20	0x00000004	6e-45
21	0x00000000	0.0
22	0x00000004	6e-45
23	0x00000004	6e-45
24	0x00000004	6e-45
25	0x00000000	0.0
26	0x00000000	0.0
27	0x00000004	6e-45
28	0x00000004	6e-45
29	0x00000004	6e-45
30	0x00000000	0.0
31	0x00000000	0.0
32	0x00000000	0.0
33	0x00000000	0.0
34	0x00000004	6e-45
35	0x00000004	6e-45
36	0x00000004	6e-45
37	0x00000004	6e-45
38	0x00000004	6e-45
39	0x00000004	6e-45
40	0x00000004	6e-45
41	0x00000000	0.0
42	0x00000004	6e-45
43	0x00000004	6e-45
44	0x00000004	6e-45
45	0x00000000	0.0
46	0x00000004	6e-45
47	0x00000000	0.0
48	0x00000000	0.0
49	0x00000000	0.0
50	0x00000004	6e-45
51	0x00000000	0.0
52	0x00000000	0.0
53	0x00000004	6e-45
54	0x00000004	6e-45
55	0x00000004	6e-45
56	0x00000000	0.0
57	0x00000000	0.0
58	0x00000000	0.0
59	0x00000004	6e-45
60	0x00000000	0.0
61	0x00000004	6e-45
62	0x00000000	0.0
63	0x00000000	0.0
64	0x80000004	-6e-45
65	0xb90e8c5a	-0.0001359446
66	0x3a34ac45	0.0006892125
67	0x395ce154	0.00021064776
68	0x80000004	-6e-45
69	0x38a2d53f	7.764482e-05
70	0xb9724ea7	-0.00023108219
71	0xb37bafa0	-5.860022e-08
72	0x35b34f50	1.3359622e-06
73	0x36421fd6	2.8926784e-06
74	0x38a0e410	7.6718745e-05
75	0xb87e2474	-6.059227e-05
76	0x37610514	1.3412227e-05
77	0x37c2c160	2.321665e-05
78	0x39cf7a02	0.0003957302
79	0x39920118	0.00027848105
80	0xb9cd5f5f	-0.00039171704
81	0x38cdf3e3	9.820589e-05
82	0x39f5135a	0.0004674446
83	0x39048717	0.00012638826
84	0x38a53cdc	7.879149e-05
85	0x00000004	6e-45
86	0xb7a1880c	-1.9256047e-05
87	0x375dd340	1.3221812e-05
88	0xb962d15f	-0.00021631036
89	0x39a711ee	0.0003186608
90	0x3955a3a2	0.00020374221
91	0x375ff580	1.3348996e-05
92	0xb8a2abe0	-7.756776e-05
93	0x396308c8	0.00021651678
94	0xb5adf467	-1.2960635e-06
95	0xb8701dcf	-5.724822e-05
96	0x39061ac6	0.0001278921
97	0x00000004	6e-45
98	0xb90fbf55	-0.0001370882
99	0xb9a6b7d4	-0.0003179895
100	0xb82771be	-3.9921833e-05
101	0x3938ec28	0.00017635582
102	0xb972e4a0	-0.00023164088
103	0xb9389b38	-0.00017605431
104	0xb87a07fe	-5.9612088e-05
105	0xb8f743a1	-0.00011790475
106	0x3970c764	0.00022962462
107	0x39179b83	0.00014458415
108	0xb95562e3	-0.00020350101
109	0xb8bd9af2	-9.041083e-05
110	0xb82acd0f	-4.0722134e-05
111	0x39e7f395	0.00044241236
112	0x39438b3a	0.00018648515
113	0xb51fe1eb	-5.956087e-07
114	0xb8a9cbce	-8.0965096e-05
115	0x3687a538	4.0425475e-06
116	0xb8dd7452	-0.000105597675
117	0x37da12aa	2.5996316e-05
118	0xb8b14528	-8.452899e-05
119	0x37bd8296	2.2591365e-05
120	0xb91ccdbe	-0.00014953964
121	0x383b5b6d	4.466942e-05
122	0xb8bea0a2	-9.089826e-05
123	0xb8c2a011	-9.2804556e-05
124	0x377f639d	1.5222377e-05
125	0x394148e0	0.00018433062
126	0xb924a61e	-0.00015702142
127	0xb6c18c8f	-5.7682114e-06
128	0x80000004	-6e-45
129	0xb72e2ce0	-1.03816565e-05
130	0x3a2b902c	0.00065446156
131	0x39e408ae	0.00043494016
132	0x80000004	-6e-45
133	0x388141f2	6.1634826e-05
134	0x39518d0c	0.00019984337
135	0xb238fe83	-1.0768079e-08
136	0x357898f7	9.260979e-07
137	0x3670727f	3.5829432e-06
138	0xb7859884	-1.5925856e-05
139	0xb81f4cd1	-3.7980095e-05
140	0x382ab99e	4.0704028e-05
141	0x3997f1a4	0.00028981
142	0x3986c273	0.00025703348
143	0x3939387c	0.00017664017
144	0x38a611b8	7.918797e-05
145	0x38ca7e50	9.655638e-05
146	0x39949c0f	0.00028345032
147	0x393484c5	0.00017215598
148	0xb76eb59e	-1.42281915e-05
149	0x80000004	-6e-45
150	0x38c8c7e8	9.5739786e-05
151	0x379963b8	1.8285456e-05
152	0x38b55b6c	8.647781e-05
153	0x3959d4e8	0.00020774046
154	0x394e6ec8	0.0001968696
155	0x39e17c32	0.00043007877
156	0x388c21ad	6.681993e-05
157	0x3a202dc3	0.00061103347
158	0xb67934d1	-3.7134635e-06
159	0xb827e1a7	-4.0026058e-05
160	0x383f060c	4.554358e-05
161	0x00000004	6e-45
162	0xb6360473	-2.7122703e-06
163	0x38a9a67c	8.089558e-05
164	0xb64576d6	-2.942446e-06
165	0x39bd8a22	0.00036151806
166	0xb7ed7912	-2.830898e-05
167	0x39867f22	0.00025653193
168	0x38ef11ea	0.00011399745
169	0xb8b17e72	-8.46357e-05
170	0x395ae121	0.00020873967
171	0x38710afd	5.746911e-05
172	0xb8a6a58a	-7.946331e-05
173	0xb89770c2	-7.221244e-05
174	0xb79aee7d	-1.8469285e-05
175	0x39bfd529	0.00036589176
176	0x38d2b092	0.00010046469
177	0xb66869cc	-3.4632276e-06
178	0x397d9f86	0.00024187387
179	0x3681c29f	3.8671565e-06
180	0xb72ca870	-1.0291216e-05
181	0x399f0e79	0.00030337626
182	0x38ed7e17	0.00011324527
183	0x359c3d91	1.1640824e-06
184	0xb8a6790a	-7.938042e-05
185	0x3757063b	1.2816449e-05
186	0xb88bb17e	-6.661097e-05
187	0x374300a8	1.16230585e-05
188	0x348efd63	2.6633924e-07
189	0x39d591cc	0.00040735153
190	0xb6cb98a5	-6.0676416e-06
191	0xb62b5b80	-2.5534246e-06
192	0x80000004	-6e-45
193	0xb8310524	-4.2204876e-05
194	0xb8156af0	-3.562396e-05
195	0xb9848e01	-0.00025282803
196	0x80000004	-6e-45
197	0x392f8055	0.00016737108
198	0xb9f4b3ef	-0.00046673368
199	0xb3359348	-4.2276298e-08
200	0x3600e953	1.92093e-06
201	0x3692c90e	4.374545e-06
202	0xb834ae88	-4.307789e-05
203	0xb81de901	-3.764872e-05
204	0x387d455c	6.0384496e-05
205	0xb9fea76f	-0.00048571403
206	0xb8bccbc0	-9.00249e-05
207	0x381c082c	3.720091e-05
208	0xb982c786	-0.0002494419
209	0x3920b04c	0.00015324465
210	0x39cbdde2	0.00038884493
211	0x391ddb72	0.00015054437
212	0x3865ca28	5.4786127e-05
213	0x80000004	-6e-45
214	0x38da4f68	0.000104098406
215	0xb9c2f19c	-0.00037182576
216	0xb9784282	-0.00023675899
217	0xb995c85f	-0.00028568783
218	0x39c04528	0.0003667262
219	0xbaa38e9d	-0.0012478415
220	0xbab981f0	-0.0014153104
221	0xbace80ea	-0.0015754972
222	0xb668b173	-3.4673983e-06
223	0xb86b7f18	-5.614673e-05
224	0xb900a258	-0.00012267509
225	0x00000004	6e-45
226	0xb98f3d5c	-0.00027320802
227	0xb9c7d2dc	-0.0003811334
228	0xb84560ac	-4.7058493e-05
229	0xba0614b3	-0.0005114779
230	0xb9f0ce8e	-0.00045930262
231	0xba5551ff	-0.00081375235
232	0xb98d66d6	-0.00026970234
233	0xb8d4a4a8	-0.000101396174
234	0xba4589e2	-0.00075355
235	0xb940f954	-0.00018403429
236	0xb8b89b2e	-8.802708e-05
237	0xb8c3dd6a	-9.339566e-05
238	0xb68befae	-4.170425e-06
239	0xb7d90248	-2.5869478e-05
240	0x3985d244	0.00025524397
241	0xb62eb932	-2.6035818e-06
242	0xb9cd4d25	-0.00039158124
243	0x369f32aa	4.7444673e-06
244	0xb8162d4c	-3.5804973e-05
245	0xb90c04b0	-0.00013353187
246	0xb9db196a	-0.0004178987
247	0x38344f6f	4.2989323e-05
248	0xb9323eb7	-0.00016998766
249	0x3882ca30	6.2365434e-05
250	0xb8b1f9af	-8.486525e-05
251	0xb91d403f	-0.0001499662
252	0xb8b60ac4	-8.6804415e-05
253	0xba966a2a	-0.0011475731
254	0xba4ebb4c	-0.0007886186
255	0x352b8e63	6.3909664e-07
