DRLmodels/models_cartpole/dqn_cartpole_model_2000.pth (torch, 89526 bytes, 24 tensors)

0.weight f4 [64, 4]
000000 37 d4 61 be 0b e1 e8 3c e8 d4 af bd 42 fe 60 bc
       -0.2205361 0.028427621 -0.085855305 -0.013732495
000010 dc 31 97 3d 09 fa 85 bd 71 14 f4 3e 5f 2e 3b bf
       0.07382557 -0.06541831 0.47671846 -0.7311763
000020 bb 93 61 3e d2 3e a0 be 4a cc f3 be 7b 32 03 be
       0.22029011 -0.31297928 -0.47616798 -0.12812226
000030 75 8a 1d 3e b9 3e 3b be b1 f6 c1 3f c2 80 b9 bd
       0.15384848 -0.18285646 1.5153409 -0.09057762
000040 cb 53 aa be 35 55 89 bd 12 8a 48 bd 71 f7 67 bc
       -0.33267054 -0.06705705 -0.0489598 -0.014158116
000050 6f 0c 94 bb c6 77 c5 3d c4 13 1a 40 cd 67 4f be
       -0.0045180838 0.096419856 2.4074564 -0.2025444
000060 dc c8 d3 bd 60 2c d4 3d 7c 37 a1 be 06 d4 09 3e
       -0.10341045 0.10360026 -0.31487644 0.13459787
000070 21 ce 67 bc 64 d9 1b 3c ef 0c 26 c0 33 74 b8 bd
       -0.014148266 0.009512279 -2.5945394 -0.09006538
000080 61 05 d2 3c 67 dd a3 3b cd 10 3c 40 de 63 a0 3e
       0.02563733 0.0050007585 2.9385254 0.31326193
000090 67 a5 df bd fb e1 78 be a9 92 8c bf dc b1 ce be
       -0.1092022 -0.24304955 -1.0982257 -0.4037007
0000a0 88 66 0e bd 14 08 10 3d 96 f0 16 c0 79 5f d7 bd
       -0.03476575 0.035163954 -2.3584342 -0.10516257
0000b0 29 18 96 bd 14 d1 b7 3c e5 28 f9 bf 3e bb 26 be
       -0.07328827 0.022438563 -1.9465605 -0.16282365
0000c0 2f 32 b8 3d c1 2d 4b 3e 21 c0 dd 3f 94 fd b4 3e
       0.08993947 0.19841672 1.7324258 0.35349715
0000d0 7d 15 cb bc ef cd 09 3d ae 3a 6b bf 77 c7 17 be
       -0.02479052 0.03364366 -0.91886413 -0.14822184
0000e0 55 d7 fb 3e b3 9a d8 be fd 62 dc be 96 fd b3 be
       0.49187723 -0.42305526 -0.43044272 -0.35154408
0000f0 4c a4 98 3d 1f 43 d4 be 28 66 c2 3d 01 4f a0 be
       0.07453212 -0.4145746 0.09492141 -0.31310275
000100 5e f4 87 bd af 53 99 3d 68 d4 94 3f c0 10 10 3e
       -0.06638406 0.074866645 1.1627321 0.1406889
000110 8a f6 10 3e aa 3d 8d be 8c 1b 1d 40 00 2c 50 3d
       0.14156547 -0.27586108 2.4548063 0.05082321
000120 2a ba 98 3d 78 1a da be e4 f1 60 bf e5 b8 b1 be
       0.07457383 -0.4259832 -0.87869096 -0.34711376
000130 f4 ca 12 be ee f4 42 3e 3b e5 03 40 bd 7d 08 3f
       -0.14335233 0.19038746 2.060866 0.5331686
000140 31 cd fd 3b 21 69 c0 bb e0 99 33 c0 1d d8 9a be
       0.007745408 -0.0058719073 -2.8062668 -0.30243006
000150 51 3b 96 3e 67 19 d6 bd cf 9e 52 bf 16 8d 27 bd
       0.2934213 -0.10454064 -0.8227357 -0.040906034
000160 1d 05 87 be 32 e0 a3 3e 7e a6 a3 3f 1b 5e 30 3f
       -0.2637109 0.32006985 1.2785184 0.68893594
000170 f6 80 d9 3d 19 e4 78 3e 20 2c 53 3f e8 7e 82 bd
       0.106203005 0.24305762 0.82489204 -0.06371862
000180 60 b7 5b be 55 5a a9 3e 5c 87 94 3f 69 8a b5 3e
       -0.21456671 0.3307673 1.1603808 0.3545716
000190 d9 2d ed 3e 76 ef b6 be 5b 52 09 c0 5a 8a ce be
       0.4632404 -0.3572957 -2.1456516 -0.4033993
0001a0 16 4b 90 3d 7d ab 83 be 6e 0f 36 bf be da e2 3c
       0.070455715 -0.25716773 -0.71117294 0.027692195
0001b0 90 24 d2 bd 20 39 44 3e 4e 77 ed be a5 09 8c 3e
       -0.1026088 0.19162416 -0.46380085 0.27351108
0001c0 c5 2f ac 3e c7 ed 94 3c 80 93 b0 3f 4d 1d 89 3e
       0.33630195 0.018179787 1.3795013 0.26780167
0001d0 da 6f f1 3e f2 a3 09 3e e4 b6 ae 3f a3 49 24 3e
       0.47155648 0.13441446 1.3649564 0.16043715
0001e0 9e 43 08 bd 58 51 58 3c 95 eb 39 40 86 8d 80 3e
       -0.03326761 0.013202988 2.9050038 0.25107974
0001f0 a5 c5 bc be 03 e1 ba bd c4 be c2 3f 75 70 ab 3d
       -0.3686954 -0.09124949 1.5214467 0.08371059
000200 63 35 dc 3e 8b d8 a0 be 40 4b af 3f cf d3 b6 bd
       0.4300948 -0.3141521 1.369484 -0.08927118
000210 2c 73 53 3d 6c 11 05 be d2 0a 2f be 91 d4 5e bd
       0.05162351 -0.12994927 -0.17093971 -0.054401938
000220 82 02 b3 3e 82 b7 86 3e c7 bd 82 3f f1 f6 60 3e
       0.3496285 0.2631188 1.0214165 0.219692
000230 1f ae d2 bd 4d 2f 2a 3e 24 8e 46 3e bd 6f 14 3c
       -0.10287117 0.16619606 0.1939016 0.009059844
000240 70 49 bf 3e 05 31 20 3e fe 69 8a 3f 12 96 17 3e
       0.37360716 0.156437 1.0813596 0.14803341
000250 d8 4d 45 3d 03 14 2d bd 61 57 b0 bf ff 95 9d 3d
       0.04816994 -0.042255413 -1.3776666 0.07694625
000260 c0 e9 08 3e 3b e8 9c 3e d1 58 5d bf 38 21 36 3f
       0.13370419 0.30645928 -0.8646365 0.7114444
000270 0e 66 32 bd cb 20 a3 3d aa e8 fd be 81 fe 38 3e
       -0.04355436 0.07965239 -0.4959157 0.18065836
000280 8f 8f 5d bd e0 9b 9d 3d 50 71 5d 3f f0 da 25 be
       -0.054091986 0.076957464 0.86501026 -0.161968
000290 83 44 12 be c7 4c 28 3e 3c b3 e2 3f 7e 35 ea 3e
       -0.14283948 0.16435538 1.7710948 0.45743936
0002a0 ef 76 64 3e 48 1a f2 bd 75 b8 fd bf b8 c5 ce be
       0.22310995 -0.11821419 -1.9821917 -0.40385222
0002b0 95 f5 1b 3e 1b 91 52 be e3 d8 7d bf 96 d3 bd be
       0.15230401 -0.20563166 -0.9915907 -0.3707549
0002c0 3b 78 c4 be bf 2c af 3e 47 39 df 3e 34 6c d7 3e
       -0.3837298 0.34213826 0.43598387 0.4207474
0002d0 a1 f8 a8 be b9 e6 b1 3d 30 6e b0 bf 45 c8 14 be
       -0.3300219 0.08686585 -1.3783627 -0.14529522
0002e0 21 0c 92 be f0 f3 46 3e 12 2b 01 be 08 2a 81 3e
       -0.2852488 0.19428992 -0.12614086 0.2522738
0002f0 33 4f 25 3e 33 7f d7 be cd 83 83 3f a4 c8 9a be
       0.16143493 -0.42089233 1.0274597 -0.30231202
000300 2c 2a fd 3e ab ad 98 be 9c 94 48 3f 34 db 98 3e
       0.49446237 -0.29819998 0.7835176 0.2985474
000310 23 3a 8f bc bd c7 e2 bb 90 ce 3b 40 a4 89 ce 3d
       -0.017483776 -0.0069207833 2.9344826 0.100848466
000320 48 60 84 3d 94 86 07 be 45 24 1a 3f 7c 98 f4 3c
       0.06463677 -0.13234931 0.6021159 0.029857866
000330 3d 62 ff be 7f d4 27 be 79 21 2b bf 21 08 9e bd
       -0.49879637 -0.16389655 -0.6684795 -0.07716394
000340 3a a6 54 3e b5 ed 4b be ad ce d3 3e f2 dc f9 3d
       0.20766535 -0.19914897 0.4136862 0.12200345
000350 21 25 83 3d 0c 6f cb bd 96 8f c9 3f 9f c9 a2 bc
       0.06403566 -0.0993329 1.5746944 -0.019871531
000360 01 47 87 3d a0 d3 89 bc 84 ce 83 bf cb 46 a6 3e
       0.0660534 -0.016824543 -1.0297399 0.32475886
000370 be 37 ab be 62 08 07 3f 64 85 ec 3f 61 f1 29 bd
       -0.33440965 0.52747166 1.8478208 -0.041489962
000380 04 14 4e bc a5 a1 6b 3c 90 db 97 bf 01 5f dc 3e
       -0.012578014 0.014381801 -1.186388 0.43041232
000390 3c ed 9b 3e c7 24 a1 bc 0c 24 ac bf 83 55 66 3e
       0.30454433 -0.019670857 -1.3448501 0.22493558
0003a0 01 3c f0 be 4a dd bd bd e3 fd 15 3e ff f7 5f bd
       -0.4692078 -0.09270723 0.14647631 -0.054679867
0003b0 c9 1d 2e bd cc d5 3e 3e 2a 73 12 3f e2 50 8a be
       -0.042508874 0.18636245 0.57206976 -0.27014834
0003c0 f1 8c 6c 3e b2 02 b3 bc 61 72 11 c0 dd ab 9b be
       0.2310064 -0.021851871 -2.2726061 -0.3040456
0003d0 42 83 2a 3e a3 c5 26 bc 5e ed 9c bf 2b 2f 02 be
       0.16651633 -0.010178956 -1.2259939 -0.12713306
0003e0 3e 60 08 3f 98 fe 4b 3e c8 e1 b1 3e 5e 26 ce 3d
       0.53271854 0.19921339 0.3474257 0.10065912
0003f0 f5 0f c9 be 37 32 08 bd bd 8f 8f be ec 3f 87 bc
       -0.39269987 -0.033251014 -0.2803935 -0.016509973

0.bias f4 [64]
000000 b2 2e 29 bf 50 8e aa be aa 93 e1 3c a5 1b fc 3e
       -0.66086876 -0.333117 0.027536232 0.4923984
000010 1f 24 4d bf 4f f7 85 be d8 6f 4f 3e 38 2c 03 bf
       -0.8013324 -0.26165244 0.20257509 -0.5123935
000020 36 60 1c bf 89 d2 06 bf e7 c0 dc be ca 41 ba be
       -0.61084306 -0.52665 -0.43115923 -0.36378318
000030 3a 3f cb be 61 3d cf 3e 96 55 ef be 1a 3d 4c be
       -0.39696676 0.40476516 -0.46744984 -0.19945183
000040 21 31 bb 3e 65 83 3b bf 1d ac 54 be 04 85 cc be
       0.3656092 -0.7324737 -0.20768781 -0.39945233
000050 dd b0 0d bf 25 b3 5a bf 09 6b cc be 2a 93 09 bf
       -0.55347997 -0.854296 -0.3992541 -0.5374018
000060 21 70 c4 bd fb 1b 27 bf fa 68 a6 be b3 1d ac 3d
       -0.095916994 -0.6527707 -0.32501966 0.08404102
000070 33 87 75 bf 59 f5 a6 3e 47 93 17 bf 66 d6 22 bf
       -0.9590942 0.3260906 -0.592091 -0.63608396
000080 ed cc 46 bf cb c8 a5 be a8 95 83 bf 72 d1 c8 3e
       -0.7765644 -0.32379755 -1.0280046 0.39222294
000090 10 3b 6c bf 89 16 b2 3e 1b b1 25 bf 19 e2 56 3e
       -0.9227762 0.34782818 -0.64723366 0.20984687
0000a0 7c d3 a4 bd 5d 1d 72 bf f3 25 8f be 4b b0 23 bf
       -0.0804815 -0.94576055 -0.2795864 -0.63940877
0000b0 c4 22 c6 be ba 1d 29 bf 6a 83 41 bf 4e 27 57 bc
       -0.386984 -0.66060984 -0.75591147 -0.01313193
0000c0 b4 d8 57 bf 7c 29 19 bf d9 1a 01 3e 9e 9c 90 bf
       -0.8431504 -0.59828925 0.12607898 -1.1297796
0000d0 0c 81 73 bd 7a 73 03 3f 77 5e 68 bd ee 55 11 bf
       -0.05944924 0.5134808 -0.056730714 -0.56771743
0000e0 3c ec 8e 3d 8e ae 94 bf 46 4b 91 bf 44 e7 b2 bc
       0.06978652 -1.161577 -1.1351097 -0.021838792
0000f0 e5 75 54 bf b3 17 8b 3e 51 1d 90 bf 07 46 54 bf
       -0.8299239 0.2716652 -1.1258947 -0.82919353

2.weight f4 [64, 64]
000000 92 bb a9 bd 08 6d 7d bd e2 cc d5 bd 2f 69 d4 bd
       -0.08287729 -0.06187156 -0.10439469 -0.10371625
000010 a4 88 a6 3d 4b 44 5a 3d 38 9d d8 bd f6 12 c3 bd
       0.08131531 0.053287786 -0.10576862 -0.09525101
000020 16 ae f0 3d 00 1c b7 bd 41 7f bb 3d 5a 56 96 3d
       0.11751954 -0.089408875 0.09155131 0.07340689
000030 f8 9f c0 3c 62 5c a7 bd 54 7d 78 3d ac 53 0e 3d
       0.023513779 -0.081719175 0.060666397 0.034747764
000040 cd df 3a bd 0c eb e8 bd 4e d4 cc bd 99 82 a1 3d
       -0.04562359 -0.11372957 -0.100014314 0.07886238
000050 e4 3e 90 bd 5e e1 92 bd ed 04 d5 bd 62 fa da bd
       -0.070432454 -0.07171892 -0.1040133 -0.10692288
000060 ba 87 cb bd 88 19 a7 3c 26 5f b6 bd f3 93 58 bd
       -0.09937997 0.020397916 -0.08904867 -0.05287547
000070 04 0c 5d 3d e8 ef 8e bd c8 ae 84 3c e0 92 bc 3c
       0.053966537 -0.06979352 0.016196623 0.023019254
000080 84 37 d1 bd 40 d8 02 bd f4 a6 1c bd b8 91 5a 3d
       -0.10215667 -0.031944513 -0.038245156 0.053361624
000090 35 38 86 bd 1d 1d a0 bc f9 c4 c0 bc e1 14 0e bd
       -0.065536894 -0.019545132 -0.023531424 -0.03468788
0000a0 f0 15 19 be aa 83 8f bd 98 b7 15 3d 8b 75 d1 bd
       -0.14949775 -0.07007535 0.03655204 -0.10227498
0000b0 7f 57 07 bd 80 60 b6 bc d6 e1 ea bd 9e 03 f2 bd
       -0.033042427 -0.022262812 -0.11468856 -0.11817096
0000c0 b0 4a b7 3d 6e 9c a8 3d 35 a6 07 be 40 06 5e bd
       0.089497924 0.082329616 -0.13246997 -0.05420518
0000d0 c2 59 e0 3d df 59 27 bd 50 88 19 bd 5f 62 3b 3d
       0.1095462 -0.040857192 -0.037483513 0.04574811
0000e0 66 8c 90 3d 74 f0 87 bd 66 bb fa bd fe b0 4d 3d
       0.07058029 -0.0663766 -0.12242775 0.05021762
0000f0 80 8e 9d 3c 7f ce 10 bd ea 93 a1 bd 50 bd 05 bc
       0.019232988 -0.03535318 -0.078895405 -0.008162811
000100 1b 9c 04 bf c8 e0 97 3d 4f 62 43 bf 23 62 08 3e
       -0.518007 0.074159205 -0.7632188 0.13318686
000110 22 1d 7d c0 20 26 98 bf b1 2e ce 3d c9 19 c3 bf
       -3.9549031 -1.1886635 0.100674994 -1.5242244
000120 a6 af 39 c0 64 a7 13 bf 52 75 13 3f 66 92 90 3e
       -2.9013457 -0.5767729 0.5760089 0.28236693
000130 c5 73 fa 3d ee 0d e2 3d 06 f7 d3 be 98 af 04 bf
       0.122291125 0.11037813 -0.413994 -0.51830435
000140 9f 12 67 3d bb 21 ba 3f 94 42 16 3f 65 69 07 bf
       0.056414243 1.4541544 0.5869534 -0.52895194
000150 02 b4 28 3f e5 b7 32 be 65 64 4e bc 8e 6a 7f be
       0.6589967 -0.17452963 -0.012597178 -0.24942991
000160 31 39 dc 3d 57 02 15 3c 77 8c 6b 3e 7b 17 22 bd
       0.10753096 0.009094796 0.23002802 -0.039573174
000170 2b c4 60 bf ca dc 14 3d 99 ca 3b c0 59 6f 74 3e
       -0.8779933 0.036343373 -2.9342406 0.23870601
000180 cf cd 09 3f f0 48 b1 3d bd c6 69 c0 10 6d df 3d
       0.53829664 0.0865649 -3.652755 0.10909474
000190 a0 66 ef bf 3b 39 dc bd f9 e6 d5 be b4 fc c2 3d
       -1.8703194 -0.10753103 -0.4177778 0.095208555
0001a0 f0 f0 1e 3e fc b9 e7 be 0b da 8b be fe 89 9c be
       0.15521598 -0.45259082 -0.2731479 -0.3057403
0001b0 4e 20 33 be 7b 26 0f bf df 29 5e 3d 55 43 0d bf
       -0.17492792 -0.5591809 0.05423915 -0.55180866
0001c0 97 51 44 3f de 06 fb bf 11 69 b8 3d 7f 98 94 bf
       0.76686996 -1.9611471 0.09004415 -1.1609038
0001d0 27 32 3e 3d ff ff 8a bb fe 1e 69 be 57 c7 46 be
       0.046434548 -0.004241943 -0.22765729 -0.1941198
0001e0 cc 96 6e 3e 18 ed bd bf 49 36 04 bf fc 6e 9e bc
       0.23299712 -1.483798 -0.5164533 -0.01934003
0001f0 df f2 e2 bf d0 0b 7c be aa 5f 43 c0 30 4b 73 bd
       -1.7730368 -0.24613881 -3.0527139 -0.059397876
000200 01 7d fd 3b a1 c7 15 3e e8 c8 89 3e fc 0b d3 be
       0.007735849 0.14626934 0.26911092 -0.4122008
000210 9d 7c 8a c0 ca c0 2b 3e 42 2f b5 3e 42 e7 c2 c0
       -4.3277116 0.16772762 0.35387617 -6.0907297
000220 fa 9d 1c c0 a4 62 25 3f 30 a0 b1 be 21 c4 aa be
       -2.4471421 0.6460364 -0.34692526 -0.3335276
000230 5c 94 02 3f d1 7a 5e 3e cb f2 0d 3d 55 8c 32 be
       0.5100763 0.21726538 0.034655374 -0.17436345
000240 bd 75 96 bc 53 08 0c bf 3e 1b 6a 3e 15 36 75 be
       -0.018366689 -0.547002 0.22861955 -0.23946412
000250 a8 1b c4 bf 01 4f 30 bf 6b 1a 57 bf 28 2a 18 bf
       -1.532094 -0.6887055 -0.84024686 -0.59439325
000260 af a9 a0 3e 1e 76 48 be b2 2e 01 3f 96 67 fa be
       0.31379458 -0.19576308 0.50461876 -0.48907155
000270 95 a8 00 c0 c3 0c 84 3d c2 b1 06 c0 6c 0e 60 3e
       -2.0102894 0.064477466 -2.1045995 0.21880502
000280 65 5e aa bf 2f db 8f bc 74 99 02 c0 2f 69 65 3e
       -1.3310057 -0.01756057 -2.040616 0.22403406
000290 b0 3b 7c bf f5 0b c3 3d 9f cc 28 bd f3 ea c6 be
       -0.98528576 0.09523765 -0.041210767 -0.38851127
0002a0 0e 5c 89 3e c7 83 c9 bf d2 d8 8b 3e c6 2a ab be
       0.26828045 -1.574334 0.27313858 -0.3343107
0002b0 3c fd a9 3e 38 a6 f1 3e 4d 59 09 3e cf 43 3d be
       0.33201015 0.47197127 0.13412972 -0.18482898
0002c0 5e f9 b8 3e 29 d6 2d bf 6d 31 c5 bd c9 34 1a c0
       0.36127752 -0.6790491 -0.09628568 -2.4094718
0002d0 4a 66 fe 3d bc 55 8e be 9e fc 27 bf 6e 7d f0 3e
       0.12421854 -0.27799785 -0.6561984 0.46970695
0002e0 98 96 d7 3d 91 16 49 bf 69 ff d0 be 3e 67 38 be
       0.1052677 -0.7855006 -0.40819862 -0.18008134
0002f0 f0 a7 2f c0 63 b1 73 bc 95 c5 fe bf 98 a9 7f c0
       -2.744625 -0.014873835 -1.9904047 -3.9947262
000300 0e 13 e7 be 44 c1 54 be 4a b4 c0 3d 20 91 15 3e
       -0.45131725 -0.2077685 0.094093874 0.14606142
000310 4b 59 36 be 9d f6 1a bf 1d e0 14 bc 06 bd 93 c0
       -0.178075 -0.6053255 -0.009086636 -4.616824
000320 c4 dc 2e c0 ac 73 68 bf 57 cd e2 be 5c 9c 01 c0
       -2.7322245 -0.908015 -0.44297287 -2.0251684
000330 08 04 3f bf e0 cd ca 3d ed 0b 10 bf 5f 44 e4 bb
       -0.74615526 0.09902549 -0.562682 -0.0069661583
000340 6c 5c e1 bd f0 56 1f 3f 05 23 f9 bd 8c e0 6a be
       -0.11003956 0.6224203 -0.121648826 -0.2293722
000350 3b c3 4d bf 3a 2f 9a bf b4 0a c7 3d b9 a6 1a be
       -0.80376023 -1.2045662 0.09718838 -0.15102662
000360 5f e2 6d bd 86 1c 95 be da 02 38 3e ab 8b da 3e
       -0.058077212 -0.29123324 0.17969838 0.42684683
000370 af 42 72 be 25 ac b0 3e b9 14 97 bf a3 85 db be
       -0.2365825 0.34506336 -1.1803199 -0.42875394
000380 d2 f3 86 bf 2d 5d 1c be d6 24 65 bf 46 55 90 3d
       -1.0543158 -0.15269919 -0.8950933 0.070475146
000390 cd 57 cd bf d7 10 e3 3e 7d 98 be 3e 24 6d 49 3e
       -1.604242 0.44348785 0.37225714 0.1967054
0003a0 a4 37 44 3d f3 d3 a2 bd b7 c3 54 3e ac 6d 95 bc
       0.047904626 -0.07950582 0.20777784 -0.018240772
0003b0 f9 13 17 bf cc 44 c8 bf 61 7f a5 be 0d 14 cd be
       -0.5901485 -1.5645995 -0.32323745 -0.4005436
0003c0 22 0d f6 bd 2a 2d 02 c0 32 76 0a be ef d9 77 c0
       -0.12014224 -2.0340066 -0.1352165 -3.8726766
0003d0 b2 1b 00 be 20 42 b2 3d 1f 8c 09 3e e9 b7 9d be
       -0.12510565 0.087040186 0.13432358 -0.30804375
0003e0 1b 84 fa 3c c1 22 a6 be 07 6a 84 bf fe ec dc 3e
       0.03058057 -0.3244839 -1.0344857 0.4314956
0003f0 03 37 88 bf db eb ca 3e 37 86 e1 bf 3f 18 5e c0
       -1.0641788 0.39633068 -1.7619084 -3.4702299

2.bias f4 [64]
000000 2f cc 70 bd ac 04 72 3e 26 e9 74 bb f8 f8 26 3f
       -0.058788475 0.23634595 -0.0037370413 0.65223646
000010 75 3a ce 3e 39 c3 09 be dd ad dc 3d ed 3c 3d 3e
       0.40278974 -0.13453378 0.10775349 0.18480273
000020 91 5a 1a be 7a b5 16 be 52 7b f5 3e e0 a1 4b 3f
       -0.15073611 -0.14717665 0.47945648 0.79543877
000030 aa 89 e0 bd 1a 90 6d 3d 9b fc 03 bd 1e b9 af bd
       -0.10963757 0.057998754 -0.032223325 -0.0858023
000040 21 ef 8c 3e 9a e5 e5 bd 08 ca 9a 3e 19 89 a2 3e
       0.2752619 -0.11225434 0.30232263 0.31745222
000050 82 9f 0a be 9e eb 11 3f 8c a1 7a 3e 61 7f 1c 3e
       -0.1353741 0.5700015 0.24475688 0.15282966
000060 df 94 aa bd 64 f1 f2 bd 1b 24 f0 3c c1 0e 18 be
       -0.08329176 -0.11862448 0.029314091 -0.14849378
000070 bc 2d 15 be 9c 03 cd 3e 7f 83 2e be a7 da cb bd
       -0.14568228 0.40041816 -0.1704235 -0.09953814
000080 c6 a8 9f bc ff b2 90 3e 76 86 30 3f 19 b1 aa bd
       -0.019489657 0.28261563 0.6895517 -0.0833456
000090 9e cc 09 be 06 0b af 3e f7 e2 20 3e 2c cc 13 bb
       -0.13456962 0.34188098 0.1571158 -0.0022552116
0000a0 a0 3b 26 3f cc 54 96 3e ef e1 f6 bc 18 07 28 3f
       0.6493473 0.2936157 -0.03013703 0.65635824
0000b0 24 11 16 3f ba 95 b4 be a9 43 63 be 95 22 91 be
       0.58619905 -0.35270482 -0.22193779 -0.28346696
0000c0 57 0e e8 3e a2 10 c6 3d f2 26 dc bd a1 17 01 bd
       0.4532344 0.09671141 -0.10749616 -0.031516675
0000d0 c8 e5 45 3f 8e 25 af 3e 3b 60 89 3e 8e ab 7b 3e
       0.77303743 0.3420834 0.2683123 0.24577162
0000e0 5c c1 c0 3e 0e 6c 12 3f ba e8 63 bc 30 00 54 3e
       0.37647521 0.5719613 -0.013910467 0.20703197
0000f0 6c 81 c1 3e 13 c6 a0 3e c4 a4 8a be 0d 88 ae 3e
       0.37794054 0.3140112 -0.2707883 0.34088174

4.weight f4 [32, 64]
000000 80 04 43 bb 09 fb 4b 3e d5 14 b3 3e d1 ef 21 be
       -0.002975732 0.19919981 0.3497683 -0.15814139
000010 a9 80 58 be bd 07 d3 bd 65 bf 2d 3e 57 42 f3 3d
       -0.2114283 -0.1030421 0.16967542 0.11877888
000020 bc c7 38 bd 0c f0 fe 3d 1c ed ed be a6 22 66 3e
       -0.045112357 0.12448129 -0.46469963 0.22474155
000030 0d 4a 77 bf 18 ef 2c 3d c5 fe 2d 3d 8f f5 26 be
       -0.9659737 0.042220205 0.042479295 -0.1630461
000040 0e 41 6a c0 67 57 2e 3d 65 be 74 bc bb d4 81 bd
       -3.6602206 0.042563822 -0.014937972 -0.06339403
000050 cb 48 a1 3d 7d ad 62 bf 86 5a 15 3e 6d 85 fb bf
       0.07875212 -0.8854597 0.14585313 -1.9650093
000060 bc 6b 48 3d 40 43 2d 3d 26 8d bb bd 40 a3 cf bc
       0.04893087 0.042300463 -0.09157781 -0.025346398
000070 60 43 59 3c e8 43 d9 3d d4 e1 b7 3d c6 96 d3 3d
       0.013260692 0.10608655 0.0897862 0.10331492
000080 6f e6 cb bc d0 59 f7 3d 0c ce 03 3f ec 6c e1 be
       -0.024890153 0.12077677 0.5148628 -0.44028413
000090 20 c0 8f bb 7b 2b 5e 3f 99 ab a5 3e 68 43 ed bd
       -0.0043869168 0.86785096 0.3235748 -0.11585122
0000a0 37 c9 d1 3e c2 4e 15 3f 18 a1 b4 be 57 24 bc be
       0.40973827 0.583233 -0.35279155 -0.36746475
0000b0 90 63 11 bf 98 76 5e 3f de e1 7a bf f0 11 a4 bf
       -0.56792545 0.8689971 -0.98000896 -1.2817974
0000c0 ac 70 13 bf fd ea 84 bc 57 31 5e bd 87 ac c3 bf
       -0.575938 -0.016225332 -0.054246273 -1.5287026
0000d0 76 ef ed bd 36 3a 1d 3e f4 b9 6f 3e 6f a6 02 bf
       -0.11617939 0.15354237 0.23410779 -0.5103521
0000e0 2a 81 7f 3d e6 a8 19 3e 9b b5 a0 3c 5f 74 cf bf
       0.06237904 0.15005836 0.019617846 -1.6207389
0000f0 1c 60 51 3f 2d 5b 13 c0 b5 ff af 3f f7 b0 9b bf
       0.81787276 -2.30244 1.374991 -1.216338
000100 7a aa fb bd 4e ec b6 3d 46 e5 86 3d 4f 95 e7 bf
       -0.12288375 0.0893179 0.06586699 -1.809244
000110 7c 54 27 bf b8 5c ed bd d9 96 9f 3d a9 9a 11 bf
       -0.6536329 -0.1158995 0.07792444 -0.5687662
000120 08 34 19 bd 60 2e 6a 3c 3e e2 d4 3e 8e 16 ea be
       -0.037403136 0.014293283 0.4157886 -0.45720333
000130 c2 3b 33 bd 18 5c da 3c 88 b5 83 3d 4f a4 88 3d
       -0.04375816 0.026655242 0.06431109 0.066719644
000140 a8 0e 8d 3f 30 2a 70 3c be 06 75 bf f4 3c 66 bc
       1.1020098 0.014658496 -0.9571341 -0.014052618
000150 80 62 17 3d ef 41 ec be 39 d5 5d bf f6 91 10 be
       0.03695917 -0.46144053 -0.86653477 -0.1411818
000160 65 c6 55 3d 48 a5 89 3c 6d 30 d1 bd 8c 6e 47 bd
       0.052191157 0.016802445 -0.102143146 -0.04868941
000170 73 5d e6 bd 53 0b 95 be b3 90 44 bf 18 c7 df 3d
       -0.11248293 -0.29110202 -0.76783293 0.10926646
000180 b8 d9 95 bd d7 b3 da 3e 3c 43 2c bf 89 5c 51 3e
       -0.07316917 0.42715332 -0.6729009 0.20445456
000190 6e f9 cc bd 3d 89 0d be e5 c1 21 bf e9 c2 8e 3d
       -0.100085124 -0.13821883 -0.63186485 0.0697077
0001a0 cc b1 45 3e e0 46 2b bf cf 99 3a bd 4d e8 a2 bf
       0.19306105 -0.6690502 -0.04555684 -1.2727143
0001b0 91 95 79 bf fa ea 5d be dc 77 f4 3d a1 22 03 be
       -0.97493845 -0.21671668 0.11936924 -0.12806179
0001c0 e6 ad b6 be 33 89 b4 3c cc fd 91 3d c6 98 d8 3e
       -0.3567955 0.022038078 0.07128486 0.42304057
0001d0 69 38 2f c0 16 65 b0 be 11 c2 5c bf 57 1d 21 bf
       -2.737818 -0.34452122 -0.8623362 -0.62935394
0001e0 31 37 24 bf 02 de ad 3e f0 56 5a bc 93 1f bf bd
       -0.64146715 0.3395844 -0.013326392 -0.09332194
0001f0 0a 06 e2 be a7 41 17 3e 95 40 b0 bf 15 e2 90 bc
       -0.44145232 0.14771138 -1.3769709 -0.01768593
000200 ef 04 bb bd d4 e7 28 be 1f b1 18 3e b2 29 d9 3e
       -0.091318004 -0.16494685 0.14911316 0.42414623
000210 6f 1e df 3e c9 62 24 bd af 80 90 be 29 26 f0 3d
       0.43577906 -0.04013327 -0.28223178 0.117260285
000220 93 8f 80 bd 3a fa 2a bd c3 d2 63 3e a9 a4 ba 3d
       -0.062773846 -0.04174254 0.22248368 0.09113438
000230 ab 72 41 be b8 bc 50 3d eb 60 fd 3d 68 92 1a be
       -0.18891399 0.050961226 0.12372001 -0.15094912
000240 42 71 da 3e 3a 93 74 3b 99 80 ae 3e 00 3d bc 3d
       0.42664534 0.00373192 0.34082487 0.09191322
000250 8a 8d 5c bd f4 a8 0a 3f 33 63 da be ac b7 95 be
       -0.05384592 0.5416405 -0.42653808 -0.29241693
000260 bb 07 54 be 70 5a 56 3d 23 4f 3f 3c 47 08 e3 3d
       -0.20706074 0.05233234 0.0116765825 0.11085563
000270 99 8d 2c bd 60 14 60 3e b1 e0 d3 3f e3 7c ad 3d
       -0.042127226 0.21882772 1.6552945 0.08471086
000280 12 d9 ff 3d e8 00 b1 3b 4d 2a a4 3e 81 17 82 be
       0.12492575 0.0054017194 0.32063523 -0.25408557
000290 d6 f4 e8 3c bd d3 1e bd c2 dc 9f 3e 33 21 ba 3d
       0.02843706 -0.038776148 0.31223112 0.090883635
0002a0 0c 53 4a bd 43 97 52 3e 68 f0 08 bf a8 e5 f8 3e
       -0.049395606 0.20565514 -0.5349183 0.48612714
0002b0 7f c5 84 3b 40 11 64 3e 08 ee f3 be ec 0c 8c 40
       0.0040518637 0.22272205 -0.4764254 4.3765774
0002c0 05 c7 c8 3e 61 b2 9d 3e 5b c5 65 bd c0 0d ea 3e
       0.3921434 0.30800155 -0.056096416 0.45713615
0002d0 97 1f d6 3e 07 08 e0 3e 2e cf 0a be 19 7c bb 3d
       0.41820976 0.43756124 -0.13555595 0.09154529
0002e0 37 30 bc be 06 90 d8 bd 80 64 ed 3c 60 03 f7 3e
       -0.36755535 -0.10574345 0.028978586 0.48244762
0002f0 6c 93 30 3e 20 27 e1 3e ed 78 1e c0 be 57 00 bf
       0.17243737 0.43975163 -2.4761307 -0.50133884
000300 70 14 bf bd 83 92 02 3f 26 32 10 bf ce 26 e3 bd
       -0.0933007 0.5100481 -0.5632652 -0.11091386
000310 c9 4a 97 be 4e 72 98 3d 70 b2 c0 be 70 10 fc be
       -0.29549244 0.07443677 -0.37636137 -0.4923129
000320 c9 c1 fe 39 a7 f3 28 bd 65 ec c3 be a1 0f 21 bf
       0.00048591036 -0.04124799 -0.38266292 -0.6291447
000330 da 88 02 bf 2e 72 cd 3d ce 23 e7 3d 2f af 59 bf
       -0.5099007 0.10031544 0.11286126 -0.85032934
000340 9a 4c 5d be 38 ef 20 bd 75 dd 82 be af 68 08 3f
       -0.21611252 -0.039290637 -0.25559583 0.53284734
000350 d0 04 05 bd 3a c9 aa 3e 7b 23 96 be 7f 10 07 c0
       -0.032475293 0.3335665 -0.29323944 -2.1103818
000360 85 60 06 be a4 26 92 bd 00 50 44 3b 6d f8 ab 3d
       -0.13122757 -0.07136276 0.002995491 0.08396993
000370 7f 4d b4 3d 45 30 cd 3e 49 c3 1c 3d 50 a2 76 3c
       0.08803844 0.4007589 0.038272176 0.015053347
000380 83 a0 a6 bd 5a 2c 9c 3d 52 9d 55 be df 00 13 bf
       -0.08136084 0.07625647 -0.20860794 -0.57423204
000390 e0 0b 96 3b 08 62 df bf 3d a7 d9 bd c0 99 59 3b
       0.0045790523 -1.7451792 -0.10627601 0.0033203214
0003a0 a9 05 eb 3e 11 26 80 be 2b 21 1e 3f 2b 8e 8f 3d
       0.45902756 -0.25029042 0.6176936 0.07009538
0003b0 3d d0 5f 3d 9d cd d3 3e de eb 27 3f 06 5f e4 be
       0.05464195 0.41367808 0.6559428 -0.44603747
0003c0 a8 d1 21 bf 73 fa 60 be 99 3d 4a bd 90 d5 8f be
       -0.63210535 -0.21970539 -0.04937515 -0.28092623
0003d0 f9 ad 66 3c 48 07 bc bd 2c b4 0a 3f b4 b9 c3 be
       0.014079564 -0.09181076 0.5418117 -0.38227618
0003e0 ce 96 81 be b1 48 29 3f 08 03 4f bc 92 f8 5f 3e
       -0.25310367 0.66126543 -0.012635 0.21872166
0003f0 85 14 1a be f0 97 97 bf f8 ea d7 3f f5 6b ca bf
       -0.1504689 -1.1843243 1.6868582 -1.5814196

4.bias f4 [32]
000000 55 b5 b7 bc 10 fe 80 3e 93 2d 0d 3f 5d b8 fe 3e
       -0.022425333 0.25193834 0.55147666 0.49750033
000010 fd f3 f5 bd 40 6b b7 bd a2 4c a9 be f7 a0 14 be
       -0.12009428 -0.08956003 -0.3306628 -0.14514528
000020 56 36 91 3f 88 00 3d 3f b3 b7 34 3d 8c 5d 16 be
       1.1344707 0.73828936 0.0441205 -0.14684123
000030 96 69 1e bd f2 14 68 3f 33 76 3b bd fc f0 01 be
       -0.038674913 0.9065696 -0.04576702 -0.12689584
000040 39 9e 0a bd 53 1e 07 be b0 ef 3d 3f 65 68 5b 3f
       -0.0338423 -0.13195162 0.7419386 0.8570617
000050 31 8e 2e 3e 3f 7a 1e be e1 dd 60 3f 24 77 bf bd
       0.17046429 -0.1547632 0.8783856 -0.09348896
000060 04 fc 5b be 1a 33 68 be ba cb c6 3a 60 4b 75 3f
       -0.21482855 -0.22675744 0.0015166916 0.9581814
000070 b1 cf ee bd ab 57 95 3f f7 3e 8b bb 98 c6 e5 bd
       -0.11660708 1.1667379 -0.0042494494 -0.112195194

6.weight f4 [2, 32]
000000 eb 73 d6 be bc b6 bd bf 09 52 13 bf b3 98 e5 bb
       -0.41885313 -1.4821391 -0.5754705 -0.0070067286
000010 cd d6 ad bc 8e fb 9a be d9 17 4b bf b9 28 f8 bd
       -0.021220589 -0.30270046 -0.79333264 -0.12117142
000020 47 1d 09 3f e2 c9 8f 3e 09 0a b8 bd d7 1f 93 3d
       0.535603 0.28083712 -0.08986289 0.07183807
000030 a3 2c 3b bd e9 f2 37 3e 2f 2f c8 3e 4a 37 59 3f
       -0.045696866 0.17963757 0.39098498 0.8484999
000040 0f ce a0 bf d2 22 eb 3d 03 02 84 be 9c a1 32 3e
       -1.2562884 0.11481251 -0.25782785 0.17444462
000050 66 e0 02 bf 9b 42 f0 bd 5b 7c b1 3e 39 b8 c3 bd
       -0.51123655 -0.11731454 0.34665188 -0.09556622
000060 b4 5c fa bf 95 d5 00 bd 74 50 6d 3d c8 eb 8a 3e
       -1.9559541 -0.031453688 0.057938054 0.27133012
000070 25 da a7 3d 61 33 cf 3e 0e de 9e be 23 a2 9b be
       0.08195905 0.40468886 -0.3102879 -0.30397138
000080 bb 6e 53 bf 3b 0d ac be 3e 15 b3 3e 2b dc 44 3f
       -0.82590836 -0.33603844 0.34977144 0.7689845
000090 09 e3 51 bd 49 35 84 3d 7d a3 01 bf 64 56 56 bd
       -0.05124191 0.06455476 -0.5064009 -0.052328482
0000a0 56 af 23 3e 5a 90 d3 bd fc ef aa bd 70 cf ee bb
       0.15984854 -0.10330267 -0.08346555 -0.007287912
0000b0 8e ae ce bc 94 06 c2 3d 1e ad a2 bc 91 99 d7 3e
       -0.025229719 0.09473911 -0.01985794 0.4210935
0000c0 5f b9 b2 bf ce 16 e2 bc 3a 6a 0f 3e 68 ea 00 3e
       -1.3962821 -0.027598765 0.14005366 0.12589419
0000d0 3c 87 00 bf ce ff 67 bc 60 04 b0 3c da af d5 3d
       -0.5020635 -0.01416011 0.021486461 0.10433932
0000e0 95 25 11 bf 47 33 93 3d 02 db 84 bc 67 76 51 3e
       -0.5669797 0.07187515 -0.016217712 0.20455323
0000f0 02 35 16 3e 3c 4a bd 3d 0c f0 60 3d e5 b0 9a bf
       0.14668658 0.09242675 0.054916427 -1.2085234

6.bias f4 [2]
000000 cf 79 5d 3f 12 08 4b 3f
       0.8651399 0.7930919

exp_avg f4 [64, 4]
000000 04 00 00 80 04 00 00 80 04 00 00 00 04 00 00 00
       -6e-45 -6e-45 6e-45 6e-45
000010 f8 c5 07 ba 85 1a 4e ba 19 be 9c 38 34 17 be 39
       -0.0005179341 -0.0007862228 7.474068e-05 0.00036256912
000020 7c 79 e7 b9 32 ec 52 b9 67 60 00 b8 52 ab a0 b8
       -0.00044150266 -0.0002011515 -3.060736e-05 -7.6613054e-05
000030 d7 3f ed b9 93 bc a3 b6 80 b4 62 36 79 6e 00 ba
       -0.00045251727 -4.8797315e-06 3.378169e-06 -0.0004899274
000040 44 a3 7a 3b 2a ba 8e 3b c1 21 08 3a a7 92 fb ba
       0.0038244287 0.0043556886 0.0005193018 -0.0019193486
000050 8e f1 15 b9 33 0b 9f b9 e9 e3 80 37 d9 ad 38 39
       -0.00014299733 -0.00030335187 1.5364918e-05 0.0001761237
000060 95 08 9e b8 e8 d5 d2 b8 f0 46 c7 35 7a 1e 70 38
       -7.5356256e-05 -0.000100534235 1.4847301e-06 5.7248842e-05
000070 50 e3 be 3a 0d 28 17 3a 7c d5 e1 38 48 89 da 38
       0.0014563594 0.0005766161 0.000107686006 0.00010420621
000080 8e 6a 28 ba 9f d8 dc b9 52 ea 3c 38 50 93 dc 38
       -0.00064245693 -0.00042123065 4.504092e-05 0.000105178566
000090 2c b8 22 b9 d8 5f 95 b9 84 24 a7 37 69 87 8f 39
       -0.00015518133 -0.00028490904 1.9924955e-05 0.00027375974
0000a0 bf 66 9e 3a 54 06 7b 3a 22 c6 fc b8 5c 86 8e b9
       0.0012085064 0.0009575833 -0.000120532015 -0.00027184456
0000b0 f5 fb 91 b9 11 42 08 ba 7d 34 32 39 01 0d 42 3a
       -0.00027844278 -0.0005197833 0.00016994956 0.00074024504
0000c0 85 42 69 b9 04 57 16 39 94 8c e1 36 3a d2 a6 b9
       -0.00022245392 0.0001433753 6.721888e-06 -0.00031818618
0000d0 2c 20 0b b9 80 53 b1 b7 3b 62 8b 37 6b 35 88 39
       -0.00013268058 -2.1138927e-05 1.6615833e-05 0.0002597974
0000e0 30 4e 5e 38 8c 11 5b b9 a5 be a0 b6 1a fe b9 b7
       5.3001742e-05 -0.00020892004 -4.7905655e-06 -2.2172044e-05
0000f0 90 7f 1d 39 68 c6 c2 37 f2 79 4a b8 96 85 05 b9
       0.00015020208 2.3218992e-05 -4.8274123e-05 -0.00012733633
000100 50 b1 69 37 5a 27 5a 39 60 77 19 36 d1 4b a1 b9
       1.3929166e-05 0.0002080476 2.2868262e-06 -0.000307648
000110 5f 90 57 37 89 a2 58 37 25 c0 0d b6 c7 3f 38 35
       1.2848613e-05 1.2912446e-05 -2.112248e-06 6.863815e-07
000120 9c ea a0 b8 f4 a6 6d b9 ef 65 05 b8 74 4e e3 39
       -7.673094e-05 -0.00022664276 -3.1804604e-05 0.00043355266
000130 35 1d 8f 38 ae d7 dd b7 5a 8a 17 36 bb 98 79 38
       6.8242116e-05 -2.6445687e-05 2.2581285e-06 5.9508468e-05
000140 8a 33 43 3a d3 f3 f5 ba c0 96 3b b7 95 02 03 3b
       0.00074463396 -0.0018764682 -1.1181168e-05 0.0019990553
000150 04 00 00 00 04 00 00 00 04 00 00 80 04 00 00 00
       6e-45 6e-45 -6e-45 6e-45
000160 0e 33 3b ba 2e 31 12 38 d9 10 ea b7 c9 2e 09 ba
       -0.00071410916 3.4854915e-05 -2.7902819e-05 -0.0005233107
000170 d0 15 d1 b9 15 79 eb b9 de 95 07 38 dc 91 95 38
       -0.00039879838 -0.00044912906 3.2326083e-05 7.132042e-05
000180 52 ec 4b b7 d7 89 9c b9 fa 6b 8a b5 f3 73 3a 39
       -1.21547655e-05 -0.00029857337 -1.0313227e-06 0.00017781537
000190 b2 ba f5 39 30 22 c0 38 f5 d6 f2 b7 81 85 09 b8
       0.0004686914 9.161641e-05 -2.8948745e-05 -3.278768e-05
0001a0 b8 fb b5 b9 b0 dc ff 37 70 df 5c b7 d7 8b e7 b8
       -0.00034710555 3.0501134e-05 -1.3165045e-05 -0.000110409856
0001b0 c5 a4 bd b9 13 0f cc b9 c0 bd 0a b8 e3 f5 40 38
       -0.00036171652 -0.00038921143 -3.3078482e-05 4.6005367e-05
0001c0 26 0a 3c 39 59 2b 83 b9 a0 e5 42 b5 79 11 d7 39
       0.00017932858 -0.00025018564 -7.260478e-07 0.00041021014
0001d0 eb 7e be b9 10 16 19 b8 54 f0 45 38 e5 8d 2f 38
       -0.00036334185 -3.649859e-05 4.7192283e-05 4.18554e-05
0001e0 34 f4 ff b9 d3 39 43 b9 9e 4b c8 38 c2 db fe 38
       -0.00048819336 -0.0001861819 9.550828e-05 0.00012152597
0001f0 c7 85 cd b9 6f 3b ea b9 a0 4e 96 b6 4e 93 9d b8
       -0.0003920032 -0.0004467624 -4.4795015e-06 -7.513781e-05
000200 06 90 ed b9 86 c5 3f b9 f0 58 20 b8 f1 e8 c9 b9
       -0.00045311468 -0.00018288763 -3.8229802e-05 -0.00038511262
000210 04 00 00 80 04 00 00 80 04 00 00 80 04 00 00 00
       -6e-45 -6e-45 -6e-45 6e-45
000220 c6 7e 48 3a 03 3e 6d 3a a3 e4 1b 37 4d 09 66 b7
       0.0007648285 0.0009050073 9.291954e-06 -1.3711234e-05
000230 89 dd 25 b9 f0 fc 9e b8 d2 5e f1 37 ff 97 a5 38
       -0.00015818154 -7.5811404e-05 2.8773593e-05 7.8961246e-05
000240 a6 64 c9 3a 7b 96 c6 3a f6 2b 0b 38 ad 4f 6f 38
       0.0015365079 0.0015151048 3.3181124e-05 5.7056244e-05
000250 20 8e fc b8 10 d7 83 38 de de 04 b8 4d c7 98 39
       -0.00012042769 6.286625e-05 -3.1678814e-05 0.0002914019
000260 e6 08 be b9 5f c7 7e b9 54 a4 26 36 d5 a0 10 b8
       -0.00036246254 -0.00024297599 2.483158e-06 -3.4482062e-05
000270 bc 89 5a b9 b9 bc 16 b9 76 44 86 b7 62 2e 02 38
       -0.0002084141 -0.0001437542 -1.6005924e-05 3.1037613e-05
000280 e3 ae 7e 38 c8 a1 b9 38 97 31 b7 36 4d 37 07 36
       6.0721195e-05 8.8516215e-05 5.459598e-06 2.0148757e-06
000290 04 00 00 80 04 00 00 80 04 00 00 00 04 00 00 00
       -6e-45 -6e-45 6e-45 6e-45
0002a0 1e 70 b7 39 c4 21 e2 b9 08 79 0d 38 5c 24 61 3a
       0.00034988014 -0.00043131236 3.372974e-05 0.0008588487
0002b0 69 2e f0 39 44 a0 5b 38 b6 17 d1 b6 f9 f3 cd 38
       0.00045810945 5.2362928e-05 -6.2314457e-06 9.820605e-05
0002c0 9e f8 03 38 27 7c 83 38 19 55 b5 36 82 b0 22 b6
       3.1464377e-05 6.269692e-05 5.404127e-06 -2.4242622e-06
0002d0 24 37 7a b8 c0 4c 42 36 e8 9d 8c 36 5f 2f 88 b9
       -5.9656e-05 2.8952927e-06 4.190708e-06 -0.00025975236
0002e0 eb 2d 14 9e 6f 59 d6 9d cd d3 e0 1b 8b d2 fb 1d
       -7.84455e-21 -5.67378e-21 3.7194564e-22 6.6656843e-21
0002f0 69 d9 7e 39 fc 8c 86 39 c7 93 21 b8 b2 83 b4 b9
       0.00024304319 0.00025663513 -3.852302e-05 -0.00034430396
000300 20 68 56 b9 f7 88 19 39 e0 f2 a4 b5 0d 42 2b b9
       -0.0002044742 0.0001464224 -1.2289638e-06 -0.00016332437
000310 eb c2 94 ba 94 0b a4 ba ce 86 2e 39 4f 86 ee 39
       -0.0011349594 -0.0012515658 0.00016644152 0.00045494965
000320 fe 95 5d b8 3e e5 ca b8 d8 b8 4e b8 ea 2d 38 b9
       -5.2830197e-05 -9.67481e-05 -4.9286376e-05 -0.00017564712
000330 44 fc 7c 3a 37 f3 ab 3a a0 45 3d 39 85 6c 9a ba
       0.00096506276 0.0013118748 0.00018050382 -0.0011781609
000340 f5 04 2d b9 fb 50 f0 b8 e6 83 a0 b6 60 17 78 b7
       -0.00016500412 -0.000114591756 -4.7837266e-06 -1.4787394e-05
000350 eb a9 28 ba 6e 46 83 38 40 58 97 b6 0f 73 69 ba
       -0.0006434011 6.259685e-05 -4.5104243e-06 -0.00089053897
000360 8a c4 85 38 14 29 3c 39 28 c0 e0 37 eb 06 5e 39
       6.3785425e-05 0.0001794438 2.679236e-05 0.00021174147
000370 29 74 0d 39 55 07 8f 39 a0 e3 98 b3 bc 93 f5 b8
       0.00013490081 0.00027280548 -7.119456e-08 -0.00011710028
000380 aa 12 96 39 56 95 cc 39 1c ca b0 b8 22 d0 2a b8
       0.00028624135 0.00039021176 -8.42998e-05 -4.0724997e-05
000390 04 00 00 00 04 00 00 80 04 00 00 80 04 00 00 00
       6e-45 -6e-45 -6e-45 6e-45
0003a0 69 67 b9 b9 b0 fb 9c b9 68 41 e3 37 78 3d 16 ba
       -0.00035362996 -0.0002994216 2.7090966e-05 -0.00057312055
0003b0 28 0f 4f b9 79 bc a0 b9 48 d9 4c 37 52 d4 59 39
       -0.00019746704 -0.00030658 1.2209937e-05 0.00020773828
0003c0 c5 b0 41 3a 8e bf a9 b9 b1 24 75 b8 2b a4 3d b9
       0.00073887064 -0.0003237691 -5.8446723e-05 -0.00018085602
0003d0 38 77 b2 38 90 3b c4 b8 cf 7d 64 36 c6 00 26 3a
       8.509908e-05 -9.357103e-05 3.4047878e-06 0.0006332513
0003e0 2b de 85 3a fb 50 a8 3a 2f c0 4a 38 d0 0d d4 b8
       0.0010213306 0.0012841517 4.8339538e-05 -0.000101115205
0003f0 b8 6c e8 39 b4 20 4c 3a 20 a2 15 39 4a 64 ac ba
       0.0004433149 0.00077868556 0.00014270144 -0.0013152447

exp_avg_sq f4 [64, 4]
000000 f4 01 00 00 f4 01 00 00 f4 01 00 00 f4 01 00 00
       7e-43 7e-43 7e-43 7e-43
000010 f7 cf 5e 36 c5 75 ce 36 9b 12 a5 33 d3 05 51 36
       3.320163e-06 6.1529886e-06 7.6867956e-08 3.1146817e-06
000020 38 2c 7e 37 34 5f 4c 37 64 3c ba 33 de 91 a6 35
       1.5149875e-05 1.2181514e-05 8.672285e-08 1.2410417e-06
000030 89 bc 2c 39 5a 9b 93 39 0f 00 97 37 9d 66 79 38
       0.00016473433 0.0002815377 1.800063e-05 5.9461792e-05
000040 0d bc 25 3b a1 95 da 3a b8 47 4c 37 7f f1 39 39
       0.002528909 0.0016676673 1.2176046e-05 0.00017732939
000050 f9 67 1e 37 ba ec 1a 37 92 4c 94 34 34 d7 0c 36
       9.441742e-06 9.2342325e-06 2.762286e-07 2.098689e-06
000060 02 5f a8 36 68 d4 c8 36 c5 a8 7f 33 01 fe 81 35
       5.0178505e-06 5.985192e-06 5.952531e-08 9.685174e-07
000070 56 df 64 3a 23 c9 a5 3a 53 63 9c 38 19 4e af 39
       0.00087307894 0.0012648444 7.45716e-05 0.00033436788
000080 56 97 15 3a 1f 54 44 3a 71 df 8e 37 23 73 52 39
       0.000570645 0.00074893417 1.7031767e-05 0.00020070052
000090 2b cd 92 37 fd 25 cd 37 46 e9 f8 34 c3 bf 34 36
       1.7500095e-05 2.4455594e-05 4.6363328e-07 2.693371e-06
0000a0 23 e9 ee 38 b8 95 78 39 b1 f7 21 37 48 03 ce 38
       0.000113921495 0.00023706898 9.654018e-06 9.823457e-05
0000b0 e8 d9 08 38 64 b1 9e 38 27 8f 4b 36 4a 79 0b 38
       3.2627868e-05 7.567069e-05 3.0332683e-06 3.325314e-05
0000c0 97 45 15 37 a0 c1 40 37 07 d5 21 34 25 af 1f 36
       8.897295e-06 1.1489174e-05 1.5071792e-07 2.3794794e-06
0000d0 9a 52 f6 37 44 d2 d7 37 b8 c1 74 34 e8 f7 49 36
       2.936395e-05 2.572791e-05 2.2794745e-07 3.0095634e-06
0000e0 53 09 80 37 5a 6b b6 37 3a 9a 1a 35 a4 a3 34 36
       1.5263131e-05 2.174608e-05 5.75939e-07 2.6917342e-06
0000f0 a1 9c 23 37 ef c6 34 37 d8 df 2e 34 f2 f5 aa 35
       9.752025e-06 1.0775154e-05 1.6286447e-07 1.2737567e-06
000100 b3 37 85 37 63 50 ec 37 39 a9 b1 35 47 fa 0c 37
       1.5880772e-05 2.8170825e-05 1.3236778e-06 8.4029225e-06
000110 73 16 e8 35 6d 4d 18 36 ac d0 c5 32 25 52 28 35
       1.729188e-06 2.2694833e-06 2.3028711e-08 6.2704413e-07
000120 d9 8c ac 38 ba bf 9f 38 bb c8 d0 35 c7 75 1f 37
       8.227834e-05 7.617423e-05 1.5555628e-06 9.504561e-06
000130 6a a6 98 36 6e b1 ad 36 22 b9 e9 33 ca 5b e1 35
       4.549326e-06 5.1764573e-06 1.08835835e-07 1.679052e-06
000140 87 05 31 39 99 5d b3 39 f3 12 39 37 8d e2 25 39
       0.00016882094 0.00034211276 1.1031271e-05 0.00015820023
000150 f4 01 00 00 f4 01 00 00 f4 01 00 00 f4 01 00 00
       7e-43 7e-43 7e-43 7e-43
000160 d8 59 91 36 9a f4 06 37 ef af f0 33 87 8d 90 35
       4.331796e-06 8.043973e-06 1.1207873e-07 1.0770026e-06
000170 3e 5d fa 35 ee 16 80 36 14 4a 3e 32 76 c8 c1 34
       1.8653589e-06 3.8173666e-06 1.1076299e-08 3.6094906e-07
000180 fc 04 1e 37 c7 ec 49 37 26 5d 37 33 fe f6 1d 35
       9.418694e-06 1.2035663e-05 4.2692726e-08 5.884648e-07
000190 4e 87 ca 37 88 3f 20 38 d7 a0 d4 35 d1 87 e1 36
       2.4143283e-05 3.820614e-05 1.5842041e-06 6.7213336e-06
0001a0 2c a2 14 37 a2 e6 2f 37 38 f6 18 34 e0 0c 43 35
       8.859246e-06 1.0484511e-05 1.4245677e-07 7.2661896e-07
0001b0 d4 d1 6b 36 d4 8b 72 36 fc ab 8f 33 e7 9f 75 35
       3.5139865e-06 3.61422e-06 6.69024e-08 9.15023e-07
0001c0 cc 92 0c 36 be 34 60 34 26 9d b3 31 96 c2 bf 34
       2.0947073e-06 2.0880813e-07 5.2274514e-09 3.5718102e-07
0001d0 2f 7d 95 37 7c cc 06 38 5c 8e f9 35 c7 a7 28 37
       1.7820477e-05 3.213853e-05 1.8593378e-06 1.0052644e-05
0001e0 1c f1 86 39 ad 9f a9 39 0c b9 ea 36 e1 a0 a3 38
       0.00025738112 0.0003235316 6.9952857e-06 7.802412e-05
0001f0 81 bb 8a 38 20 52 41 38 9b 54 d1 34 07 ec 8f 36
       6.615278e-05 4.609127e-05 3.8990842e-07 4.2892093e-06
000200 26 6d dc 36 fc 9e ef 35 ed 95 77 33 78 65 9c 35
       6.5692175e-06 1.7853158e-06 5.7645526e-08 1.1652437e-06
000210 f4 01 00 00 f4 01 00 00 f4 01 00 00 f4 01 00 00
       7e-43 7e-43 7e-43 7e-43
000220 45 2c 03 38 df 31 b8 37 70 8e 47 33 be ab f8 35
       3.1274063e-05 2.1957732e-05 4.6462844e-08 1.8527423e-06
000230 cd 14 03 37 cd 31 1f 37 a0 ea 4d 34 90 01 c4 35
       7.8130515e-06 9.488734e-06 1.9177469e-07 1.4603593e-06
000240 0d 8e c9 38 d8 c2 8c 38 d2 d1 4b 34 d3 42 df 36
       9.610886e-05 6.712013e-05 1.898218e-07 6.6536973e-06
000250 5b 18 ba 38 32 5c 8e 38 38 22 4e 35 92 cf 09 37
       8.873708e-05 6.78826e-05 7.6790775e-07 8.214165e-06
000260 6e ea a2 36 d4 95 b9 36 a2 98 d2 32 02 89 36 35
       4.8552674e-06 5.530872e-06 2.4516627e-08 6.7999656e-07
000270 45 49 dd 36 1b c4 e9 36 dc 62 b8 33 8e 33 96 35
       6.594843e-06 6.966771e-06 8.58615e-08 1.1190875e-06
000280 bb 53 a9 35 06 79 f8 35 5b 29 7d 32 72 9b 8a 34
       1.261585e-06 1.8512662e-06 1.4735941e-08 2.5817604e-07
000290 dc 3e 73 2b 86 a3 c6 2a cc a7 35 27 9e 69 13 2b
       8.641818e-13 3.5285333e-13 2.5209759e-15 5.2371464e-13
0002a0 35 33 25 38 0c 80 b0 38 c1 ab 93 36 82 19 f1 37
       3.9386756e-05 8.4161846e-05 4.400936e-06 2.8741317e-05
0002b0 f3 d6 64 36 6c 25 9d 35 77 af 2d 33 aa 05 b2 34
       3.4099764e-06 1.1708303e-06 4.0439286e-08 3.3159205e-07
0002c0 28 1a 3c 36 c0 fc 59 36 fd 2b 22 33 89 30 7b 35
       2.8029408e-06 3.248264e-06 3.775857e-08 9.3575414e-07
0002d0 42 d9 96 37 1f 34 51 37 56 80 d1 33 98 3d 91 35
       1.7982562e-05 1.2469506e-05 9.755665e-08 1.0821268e-06
0002e0 70 2e b5 2f 5e 1d d1 2e 65 8a 41 2b 58 e4 27 2f
       3.2956704e-10 9.509436e-11 6.8759435e-13 1.5269686e-10
0002f0 8e ff 7a 37 1e 2a de 37 d8 12 0c 35 01 69 52 36
       1.4960662e-05 2.6484075e-05 5.2181485e-07 3.1353559e-06
000300 cf 8c b8 35 b6 cf ae 34 e0 2a c0 31 42 83 c4 33
       1.3750049e-06 3.2561155e-07 5.5928098e-09 9.150837e-08
000310 b7 f8 06 3a 36 ed 26 3a 6d 1c 6a 37 b7 dc ee 38
       0.0005148756 0.00063677446 1.3954105e-05 0.00011389836
000320 78 e8 57 36 cb ff 7f 36 fc 70 e7 33 a9 ca 41 35
       3.2172811e-06 3.8146852e-06 1.07773275e-07 7.219301e-07
000330 50 1f 5a 3a 68 c3 1f 3a 7e fa 90 36 74 65 79 38
       0.0008320706 0.00060944865 4.3206956e-06 5.946071e-05
000340 27 29 f0 35 55 c1 4f 36 de b9 83 33 46 a6 e3 34
       1.789337e-06 3.0957938e-06 6.133972e-08 4.2403025e-07
000350 5e bb 1f 39 38 4b 94 39 ee 2f 97 37 b8 0c 91 38
       0.00015233221 0.00028284802 1.8022922e-05 6.916508e-05
000360 57 a1 8b 36 0c 3d 68 36 29 1e 98 34 a0 8c 73 35
       4.1613052e-06 3.4606228e-06 2.833415e-07 9.072919e-07
000370 8c b9 1f 36 2b bc 86 36 fc e0 16 32 63 8e a1 34
       2.3800849e-06 4.015417e-06 8.782305e-09 3.0092187e-07
000380 4d 3f 2d 38 8b e1 9e 38 a6 f3 c5 36 6d 30 85 37
       4.1305368e-05 7.576038e-05 5.899422e-06 1.5877386e-05
000390 e5 a2 28 2a 2b 01 97 29 07 33 e2 24 d5 16 c8 29
       1.4977913e-13 6.70595e-14 9.809832e-17 8.885745e-14
0003a0 27 50 86 39 e4 54 3e 39 4c 02 b2 35 92 f1 8b 37
       0.0002561819 0.00018151436 1.3262702e-06 1.6682581e-05
0003b0 af 70 e8 35 9c 63 36 36 0f a6 a6 32 19 f2 e4 34
       1.7318142e-06 2.7178094e-06 1.9400458e-08 4.264446e-07
0003c0 c0 88 88 38 6b 10 9e 38 54 74 8e 35 15 63 80 37
       6.510457e-05 7.537085e-05 1.061368e-06 1.5304928e-05
0003d0 56 f4 5b 38 ae 2d 35 38 c8 6c 4b 35 1f 55 bb 36
       5.2441224e-05 4.3196305e-05 7.578169e-07 5.5829437e-06
0003e0 93 99 dc 38 68 1e d3 38 83 1b 12 34 2d f9 b9 36
       0.00010519023 0.00010066928 1.3607318e-07 5.5424375e-06
0003f0 ce 44 8d 3a 5c 1f 3e 3a 31 fb b5 36 1b 13 95 38
       0.0010777952 0.0007252598 5.423463e-06 7.108432e-05

exp_avg f4 [64]
000000 04 00 00 00 77 b1 ea b9 88 8c 23 38 24 bf 52 39
       6e-45 -0.0004476418 3.899311e-05 0.00020098366
000010 64 69 e4 ba 1e 8d 3c b8 20 30 17 b7 1a f0 1d ba
       -0.0017426428 -4.495412e-05 -9.011506e-06 -0.00060248526
000020 0e ea 3e 39 6a 15 97 b8 5e db 45 3a 71 6f 92 ba
       0.00018207004 -7.20423e-05 0.0007547642 -0.0011172128
000030 30 6a 10 b9 82 dc 4b b9 0c 57 24 38 31 96 83 39
       -0.00013772468 -0.00019441734 3.9181716e-05 0.00025098168
000040 14 ae 34 39 88 84 10 b7 d0 8b 5b b8 e2 1d 12 38
       0.00017230987 -8.613926e-06 -5.234388e-05 3.4836943e-05
000050 04 49 2d ba 04 00 00 00 1e a4 bf b9 3c b4 55 b9
       -0.00066103064 6e-45 -0.00036552636 -0.00020380405
000060 64 d1 17 b8 55 88 06 39 94 19 0e b7 38 c0 f6 38
       -3.6196216e-05 0.00012830023 -8.469815e-06 0.000117659976
000070 8a 12 23 39 e8 66 76 b9 75 88 fa 39 10 2b 3e 39
       0.00015551798 -0.00023498724 0.00047785384 0.00018135854
000080 83 01 42 b9 04 00 00 00 10 cc b7 39 ca 55 7a b9
       -0.00018501845 6e-45 0.00035056518 -0.00023873817
000090 f3 8a 3a 3a d8 ec 30 b8 fb 7b 20 b9 8f a4 80 b8
       0.0007116042 -4.2182248e-05 -0.00015304975 -6.134167e-05
0000a0 8c ec a9 36 04 00 00 00 44 34 fb b9 51 cd 9e 37
       5.06413e-06 6e-45 -0.00047913392 1.8930676e-05
0000b0 4e b7 b9 37 02 1c c0 37 98 4e 9c 1d a9 1c 75 39
       2.2139076e-05 2.2901226e-05 4.137412e-21 0.00023375697
0000c0 59 94 eb b8 71 66 67 3a 75 91 b5 39 bf a6 f8 b9
       -0.00011233305 0.00088272156 0.00034631384 -0.00047426482
0000d0 d4 6f 28 b8 14 97 6b 39 f8 a9 d7 38 63 2f e5 38
       -4.015847e-05 0.00022467627 0.00010283658 0.000109283974
0000e0 79 90 0c 3a 04 00 00 00 e3 d3 24 39 bc a3 46 b9
       0.0005362104 6e-45 0.00015719193 -0.00018943747
0000f0 0e 89 98 39 c7 b9 2c b9 6f 1e f8 39 e0 09 6f b9
       0.00029093813 -0.00016472406 0.0004732492 -0.00022796495

exp_avg_sq f4 [64]
000000 f4 01 00 00 83 aa 52 36 4d 28 4c 36 0c 60 eb 39
       7e-43 3.139169e-06 3.0421827e-06 0.00044894253
000010 a6 62 f8 39 60 30 04 37 6d f7 4c 36 af 96 f7 3a
       0.00047375745 7.879076e-06 3.054239e-06 0.0018889512
000020 5a b6 f2 39 95 8f 4f 37 af 99 8d 39 6c 2f b4 38
       0.000462937 1.2371592e-05 0.0002700812 8.591902e-05
000030 c5 ec be 36 22 a3 35 37 4a 34 8b 37 94 7d 9c 36
       5.690005e-06 1.0826423e-05 1.659444e-05 4.6637815e-06
000040 f2 b5 13 38 c5 42 49 35 39 a1 35 38 17 45 4e 36
       3.521698e-05 7.49755e-07 4.3303913e-05 3.0736608e-06
000050 23 38 ad 39 f4 01 00 00 fc 50 55 36 6a f8 1a 35
       0.00033038956 7e-43 3.1786612e-06 5.773096e-07
000060 80 c2 23 36 85 d9 1b 38 fd c2 80 36 c4 08 17 36
       2.4402107e-06 3.715746e-05 3.837397e-06 2.2505856e-06
000070 7e 8c e2 34 69 48 4a 38 d1 6d 44 39 25 ec 55 37
       4.2198002e-07 4.822799e-05 0.00018732926 1.2750771e-05
000080 a3 d2 f8 35 f4 01 00 00 d7 62 c9 36 12 db d2 36
       1.8538743e-06 7e-43 6.0017733e-06 6.283991e-06
000090 82 1b 9d 37 4b 93 e6 37 1f 29 b0 35 70 60 64 36
       1.8728668e-05 2.7486725e-05 1.312499e-06 3.4030782e-06
0000a0 1a 15 0a 35 05 10 8a 2a 23 cc f2 38 69 37 8e 35
       5.1439713e-07 2.452484e-13 0.00011577483 1.0595951e-06
0000b0 48 89 a1 35 b0 75 5d 36 cd 01 bc 2e 12 25 7c 37
       1.2035389e-06 3.300007e-06 8.54957e-11 1.5029002e-05
0000c0 0a b6 91 34 6c ea bd 39 8a ff 42 36 ae 69 25 39
       2.7140806e-07 0.00036223547 2.9056996e-06 0.00015774995
0000d0 5f 50 d8 35 92 57 ee 39 d6 aa eb 36 76 9d 1d 35
       1.6116645e-06 0.00045460142 7.0234337e-06 5.8716194e-07
0000e0 69 36 18 39 b5 ad 10 29 65 4e 43 38 6a 4b 4d 35
       0.00014516119 3.212509e-14 4.6564634e-05 7.6478193e-07
0000f0 c1 2b fb 37 db 4e b9 37 81 73 aa 37 af 0a 4f 39
       2.9941906e-05 2.2090439e-05 2.0319365e-05 0.00019745038
